classification_model2.pth (torch, 226379 bytes, 20 tensors)

fc1.weight f4 [256, 42]
00000000: 30c7 103f e4ca dbbe 1835 da3e ec35 493f
00000010: 8c0c 99bf 5050 1f3f 405f 18be 619f 093f
00000020: ce17 fc3c 5212 8f3e fa24 71be 1d12 aabe
00000030: d669 6ebd 894b 0dbd 3e03 1b3d 59ec 5dbe
00000040: e6bb 973d a5c0 163d 7ca4 093f 4375 7abf
00000050: a81e 593e 5ff9 2dbf 899f 59be ff31 803e
00000060: 093d 3fbd 88ea 533d 2913 843d 266a afbb
00000070: f9c2 a73d 38f1 763e 8520 86bd 1266 10be
00000080: 37b7 993d 2276 db3d d08f 053e 86e5 a5bd
00000090: 8b33 4dbe d2cc 1a3e 4c95 c83d a298 72be
000000a0: c5aa 1c3e b91c 923e cd2e 703f e254 4abf
000000b0: 29cd 933d f601 14bc a8f0 cabc 603b 043f
000000c0: 0c81 a9be 198d de3e c462 eabc 13f6 b0be
000000d0: 0317 40bd 00d7 233f 5522 183e 917a 3f3e
000000e0: ad5d a03e 53f5 a13d 05ac 7a3e 7552 4a3e
000000f0: a2fe ccbe 5dcd 2d3d 5d7b 6dbd 5686 8bbe
00000100: 6427 133e 9410 74be 8afa 94bd c675 50bf
00000110: 3a04 51be cd93 a4bc 1032 39be 1220 f7bc
00000120: f599 c43e a72b 323e d117 113f 3e4d d6be
00000130: 483f 9dbe 1185 d9bd f3bd 6cbe 2115 b93c
00000140: 71ec 31be 7819 cf3d 4051 51be e005 053f
00000150: fe8a 43bf 37ff 1d3f 8abe aa3e 49ee 29bf
00000160: f164 6f3e 654e 0cbf 09c4 03bf 7bd6 513f
00000170: ef91 b0bd cd58 993e 59cd ac3e 6c58 e83e
00000180: 7ac7 1cbc b6f0 973d dccd f53e ccbb 10bd
00000190: 707a 4a3e c182 2dbc bbfa 133f 8854 013f
000001a0: 3be4 bdbe 6638 44be 8c68 9cbe ee22 b3bd
000001b0: 430e b0be 99c1 ce3c 6132 043f d45e 89be
000001c0: 4f59 5cbd 5981 d7bd 69a7 453e 99d7 3cbe
000001d0: fc8f 6e3e 9fba 263e 47bc 863c f2e9 213c
000001e0: bffe 593c aef9 c8be 6c3d 2cbe 31fa 33bd
000001f0: 6450 2ebe 2873 c7bd 356c dbbe 454a 1e3e
00000200: ff5f d63e 2373 8fbf 64dc 113f 7b1f 21bf
00000210: 75ad 723f 8ec7 303c 5356 febd 9193 ce3e
00000220: 2572 ea3d 9ef8 9bbe cb92 98bd 2c7a 553e
00000230: af2a ddbd ebab c83d 595a 80bd b1bb cb3c
00000240: 8283 1fbd 407c 593e d622 4ebe 33fd 6b3e
00000250: 7172 b43d 6362 b73e 0acf f4bd 6830 1e3f
00000260: 135c 59bc 19ad 82be f8b6 463c 3ff6 f7be
00000270: aca9 edbe 77b7 46bf 1e78 52be ec7d 6fbe
00000280: 4898 873e 9fea 293d 64ad 6bbb 4601 26bd
00000290: fb95 15bd 0264 b53e aa6f a73e a96a f8be
000002a0: 0ff5 d93d ff89 c8be cdf0 25be ac7a 0cbe
000002b0: d399 f6be e67c 5fbe 03b2 fabc 7260 0dbf
000002c0: aa9d 433f 34cb 183f 7cb3 d1be eeb5 363e
000002d0: 6fe2 81be 1bf9 4d3d c939 1fbe 605d 643d
000002e0: f865 513e b865 dc3d 8485 1cbe 5a43 f93e
000002f0: f812 853d 9f85 dc3e 546f a6bd 2873 3d3f
00000300: 86e3 353e b079 173e f17b 1fbe d930 a73d
00000310: bce2 b73e 0b83 03bf 09c4 953e 3527 14be
00000320: dbc5 e03e 7c5f 8d3e 98cd 2bbe 840b 5e3e
00000330: a54a a3bd 9448 a5bd 361a a3be c23c 07bf
00000340: f642 b7bd 045f 59bf 887f a73e 68ed b7be
00000350: a1ce 1e3e c5dd 3a3e 680f 0a3f ac97 f6be
00000360: b51e e63d e2e1 223e c21c 36bf ef2d 86bf
00000370: 5f8e 53be 6cd5 533f f5ef 98be 820d bcbe
00000380: 84f1 94be 0362 143e f281 a8bd ec38 52be
00000390: 354c 323d 56ba 053f c651 4abe 558c a7be
000003a0: 98e7 9dbe 2847 3b3d 14d1 94be ee99 f23e
000003b0: 1961 8c3e c0c9 debd 8f2f af3e 709e 2bbd
000003c0: c4a9 e9bd 68df c3be 6c25 da3c 9867 683e
000003d0: b8f5 9bbd 6c91 e8bd 3504 843e 1d8c abbe
000003e0: d957 af3d 21b3 563f 990d ac3e 5757 a23e
000003f0: a103 4dbe f8f4 303f 5fae df3b 482a 3b3f
0.56553936 -0.4292823 0.42618632 0.78597903 -1.1956954 0.6223192 -0.14880085 0.5375882
0.03077307 0.27943665 -0.23549262 -0.33216944 -0.0582064 -0.034495864 0.03784489 -0.2167219
0.07408886 0.036804814 0.5376661 -0.9783518 0.212031 -0.67958635 -0.21252264 0.25038144
-0.046689067 0.05173734 0.06448967 -0.00535323 0.08191485 0.24115455 -0.06549171 -0.14101437
0.075056486 0.107158914 0.13043141 -0.08100419 -0.20039193 0.15117195 0.09794101 -0.23691037
0.15299518 0.2853754 0.9382141 -0.7903577 0.072168656 -0.009033671 -0.024772957 0.516531
-0.33106267 0.43467024 -0.028611548 -0.3456274 -0.046896946 0.6399994 0.14856847 0.18699099
0.3132147 0.0790812 0.24479683 0.19758017 -0.4003802 0.042432178 -0.057978977 -0.27250928
0.14370495 -0.23834449 -0.07274349 -0.8142971 -0.20411769 -0.020090008 -0.18085504 -0.03016666
0.3839871 0.17399465 0.56676966 -0.41855806 -0.30712342 -0.106210835 -0.23119335 0.022593083
-0.17375351 0.1011228 -0.2044115 0.5196209 -0.7638396 0.6171755 0.33348495 -0.6637922
0.2337835 -0.5480712 -0.51471 0.81967896 -0.086215846 0.29950562 0.33750418 0.4537996
-0.009569043 0.07418959 0.4800862 -0.035335347 0.19773269 -0.010590256 0.5780446 0.5051961
-0.3708819 -0.1916214 -0.30548513 -0.08746897 -0.3438588 0.025238799 0.5163937 -0.2683016
-0.05379611 -0.10522718 0.19302143 -0.18441619 0.23297113 0.16282128 0.0164472 0.009882437
0.013305365 -0.3925299 -0.16820306 -0.043939773 -0.17022854 -0.09738761 -0.42855993 0.15458019
0.41870114 -1.1207012 0.56976914 -0.6293866 0.94795924 0.010789765 -0.12418809 0.4034696
0.114475526 -0.30463117 -0.074498735 0.20847386 -0.10799157 0.09798416 -0.062672324 0.024869772
-0.038943775 0.21238804 -0.20130476 0.23045807 0.088108905 0.3581725 -0.11953552 0.6179261
-0.013266581 -0.25522688 0.012128584 -0.48430058 -0.46418512 -0.77623695 -0.20553634 -0.23387879
0.2648337 0.041483518 -0.0035961503 -0.04052856 -0.036519986 0.35427862 0.3270238 -0.48518875
0.10642444 -0.39167783 -0.1620514 -0.1371867 -0.48164234 -0.21824989 -0.03060246 -0.5522529
0.7641245 0.59685063 -0.40957248 0.17842838 -0.25368068 0.050286394 -0.15549387 0.05575311
0.20449054 0.10761589 -0.15285307 0.48684198 0.064977586 0.43070695 -0.08126703 0.7400384
0.17762575 0.14792514 -0.15574624 0.08163614 0.35915172 -0.5137183 0.29251125 -0.14468081
0.43900952 0.2761191 -0.16777647 0.2168408 -0.07973222 -0.08070484 -0.31855935 -0.52827084
-0.08948319 -0.8491061 0.32714486 -0.35923314 0.1550851 0.18248661 0.5392976 -0.4816259
0.11236326 0.1590648 -0.7113763 -1.0482768 -0.20659779 0.8274753 -0.29870573 -0.36729056
-0.29090512 0.14490514 -0.0822791 -0.20529526 0.043529708 0.5223745 -0.19757757 -0.32724252
-0.30840755 0.045722157 -0.29065764 0.47383064 0.2741783 -0.108783245 0.34215972 -0.041899145
-0.11409333 -0.38256383 0.026629172 0.22695768 -0.076152265 -0.11355862 0.2578446 -0.33505335
0.085616775 0.8386708 0.33604124 0.3170726 -0.20020916 0.6912379 0.0068262066 0.7311139

fc1.bias f4 [256]
00000000: cc0e 2ebc ac0d e83d e1a5 17bd eefb ecbd
00000010: 136a d83d 56db 0cbe 12e7 07bd a560 e3bd
00000020: ad26 8fbc aa20 09bd 2400 1ebe 75ff 283c
00000030: 92db 06bd d759 143e 814c 403c 9910 1c3d
00000040: 0e90 cebc d7af ffbb 9933 bebd 8905 f13d
00000050: e05f 933d c4bb b9bd c249 8fbd d0f8 03bd
00000060: 31e7 1abd 68d9 a63d a053 12be 6690 8b3d
00000070: 2e06 003e b961 073e d751 19be 5090 bd3c
00000080: 7877 a33d 92cd cfbd 27a3 853d b73d b4bd
00000090: f535 09be 45b9 073e 56ba 053e c4db c93d
000000a0: f2f6 a93d 33c6 933d b5d5 683d 7c8d aebd
000000b0: d9fa 11be dfc3 8abd da44 71bd 0f47 f43d
000000c0: babe 02bd fb46 cc3d 7f8b 673c 68bd 29bd
000000d0: 74f2 b2bd 10f9 35bd 5bd0 d33c d658 1c3e
000000e0: c52c 963d 5a6b 26bd 9d88 8ebd f165 c83d
000000f0: a208 c5bd fe74 10be 99d5 d53c b567 09be
00000100: 55f1 4abc 7e38 47bd 9458 1dbd 4b55 f23d
00000110: 2825 ea3d 803e 7c3d d74f 15be b9fc 15be
00000120: 7265 97bd 058d b8bd 4bb6 abbd 4b0c ffbd
00000130: 74c0 d63d 57a7 b1bc 0c95 15be df8b c4bd
00000140: 46c1 68bd 191e d23c b699 d4bd 56a1 0bbe
00000150: 938d 073e 7125 bb3c c49b b8bd f0ed fbbc
00000160: 847e 9f3d dd42 973d 6c4a cf3d 79a0 113e
00000170: d997 203d 42f7 043e 3b07 183e 05b8 f5bc
00000180: e745 9f3d 38fc ca3d cb63 4bbd 982f 9cbd
00000190: 1d79 873d e481 03be b516 1a3e c5c5 88bc
000001a0: f972 aebd fcfb d13d a699 0839 3874 a3bd
000001b0: 7706 c5bd da22 8e3c bb57 5fbd b4e1 1b3e
000001c0: c36b 3ebd c6f3 b9bd fc3a d0bd 1b5f edbd
000001d0: 256c 1b3e 1ac6 183e 83e3 e83c ed4c 0ebe
000001e0: 70ac 533d 0b3d 68bd 38cb 11be 7046 95bc
000001f0: d524 bc3d 02d0 0a3e 6d26 b9bd d098 213d
00000200: b061 e8bc 78d6 e53d 9f4c c3bc e48b f9bb
00000210: a9b1 c63d 81b0 03be d5e5 96bd 36b0 183e
00000220: 1893 e3bc 88f2 67bc da6d 03be 5ef8 70bd
00000230: 10b2 b5bd 90bd 1e3d 0b35 083d 10a3 17be
00000240: ac97 103d 3d95 1c3e 87c3 733d 6e5b 18be
00000250: 0217 1e3c 5535 47bd 7359 1f3d 1496 a03d
00000260: 2d54 a53a a95f 86bc b80f b43d 2fb0 0bbe
00000270: 5c86 57bd d071 fdbd 47d4 7dbd 50ae 113e
00000280: edf7 fbbb 4832 003d 5bf7 a0ba 39a3 6dbd
00000290: 8e78 103e 182f 59bd ef2c bebc 9877 7c3d
000002a0: 718b 843b ee03 e1bd 11c4 d93d 7306 0ebe
000002b0: 508b 683d 43af ebbd e1b2 03bd 0207 08be
000002c0: 5281 013e dbfe 97bd b696 1abe 12cb 23bd
000002d0: 7a30 953d 2e49 42bd 5e23 6c3b 4489 1bbe
000002e0: 658d 70bc a850 ecbd 35f9 dabc 6343 053e
000002f0: afc0 8d3c 0756 753a 2a86 b83c accd 0d3e
00000300: 4855 a93d 5051 ca3d 7f48 0f3d bc9d ca3d
00000310: 44df 183e f886 e4bd 399f b7bc c458 ec3d
00000320: 6131 d43d 6678 0c3d 2002 01be bd14 b7bd
00000330: 7f9b 82bc d0c2 59bc 5b53 853b 793d 08be
00000340: 699f 843d 889c d6bd 3532 19be 7d3c 9c3d
00000350: 32b2 163d 859a 903c a0ff 413b e401 f23d
00000360: 9b2d 2e3d 70ec bd3c 244a 35bc 80f2 d33d
00000370: a073 b13b ba99 093e 8cc1 69bb 996c bcbd
00000380: 30e6 6cbd 82dd bfbd 6b4e e53d df95 69bd
00000390: 2442 f23d 5420 073e f3b6 083e a877 f4bd
000003a0: ddc6 d03d 1a1a 103e 2ba0 d4bd 7342 febd
000003b0: 1d2e f23b c6b7 b5bc 86b0 cf3d 1ef2 013e
000003c0: fbb5 443d 22e3 e8bd ab35 933c ba9f 84bd
000003d0: 9a8e f2bc 1dac 8d3b 2e0c 8a3d 4f5d efbd
000003e0: 3395 94bd 1206 a03d 7c5b d7bd 23e7 b8bd
000003f0: 6226 d33d 2879 58bd 7cc1 533c aff7 223d
-0.010623645 0.11330733 -0.03702343 -0.11571489 0.10567107 -0.13755545 -0.03317935 -0.11102418
-0.017474497 -0.033478417 -0.15429741 0.010314812 -0.032924242 0.14487396 0.01173699 0.038101766
-0.025215175 -0.007802944 -0.09287185 0.11768634 0.07196021 -0.090690166 -0.0699649 -0.032219708
-0.037818138 0.08146936 -0.14289713 0.06814651 0.12502357 0.13220872 -0.14972626 0.023140103
0.07981771 -0.10146631 0.065252595 -0.08800834 -0.13399489 0.13254268 0.13059363 0.0985637
0.08299054 0.07215538 0.056844432 -0.0852308 -0.14255847 -0.06775641 -0.058903553 0.11927616
-0.031920172 0.09974476 0.01413238 -0.041440398 -0.087376505 -0.044426978 0.025856188 0.15268263
0.07332758 -0.040629722 -0.06959651 0.09785069 -0.09620787 -0.14107129 0.026102828 -0.13418467
-0.01238664 -0.04863786 -0.038414553 0.118326746 0.11432868 0.061583042 -0.14581238 -0.14647187
-0.07392396 -0.09011272 -0.08384379 -0.124535166 0.10485926 -0.02168624 -0.14607638 -0.09596991
-0.056824945 0.025649117 -0.103808805 -0.13635764 0.132376 0.022845002 -0.09014085 -0.030753106
0.07787803 0.073858 0.10121617 0.14221372 0.039207313 0.12984946 0.14846508 -0.029994974
0.07777005 0.09911388 -0.049655717 -0.07626265 0.066148974 -0.12842518 0.15047725 -0.016695866
-0.08518023 0.1025314 0.00013027209 -0.07981151 -0.09620374 0.017350603 -0.054527026 0.15222818
-0.04648949 -0.09079699 -0.101675004 -0.115904056 0.15177973 0.1491932 0.028428799 -0.13896532
0.05167812 -0.05669884 -0.14237678 -0.018222064 0.09186713 0.13555911 -0.09040532 0.039452374
-0.028366894 0.11222547 -0.023840247 -0.007615553 0.09701855 -0.128603 -0.07368056 0.14910969
-0.0277801 -0.014156945 -0.12834874 -0.05883061 -0.08871853 0.038755 0.03325371 -0.14808297
0.035300896 0.15291305 0.05951264 -0.14878628 0.00964904 -0.048634846 0.038903665 0.07841125
0.0012613587 -0.016403036 0.087920606 -0.13641427 -0.05261837 -0.12375224 -0.06197002 0.14226651
-0.007689467 0.031297952 -0.0012280749 -0.05801699 0.14108488 -0.053023428 -0.023214785 0.06163749
0.004044943 -0.10987078 0.106331 -0.13869648 0.056773484 -0.11508038 -0.032153014 -0.13283923
0.12646988 -0.07421657 -0.15096554 -0.039988585 0.07284637 -0.04743307 0.0036031823 -0.15189081
-0.014682149 -0.115388215 -0.02673016 0.13013987 0.017303793 0.00093588274 0.022524912 0.13847989
0.08268219 0.098787904 0.034981247 0.09893367 0.14928919 -0.11158556 -0.02241479 0.11540368
0.10360981 0.03429451 -0.12598467 -0.089395024 -0.015943287 -0.013291076 0.0040687746 -0.133047
0.064757176 -0.10479075 -0.14960559 0.07628725 0.036791034 0.017651806 0.0029601827 0.11816767
0.04252396 0.023184031 -0.01106504 0.103489876 0.005415395 0.13437548 -0.0035668341 -0.09200401
-0.05783671 -0.09368421 0.11196598 -0.057027694 0.118290216 0.13195926 0.1335104 -0.11936885
0.1019418 0.14072457 -0.10382112 -0.12415018 0.007390751 -0.022182357 0.10141091 0.12690017
0.048025113 -0.11371447 0.017969927 -0.06475778 -0.029609013 0.004323496 0.06740604 -0.11687719
-0.0725502 0.07813658 -0.10515496 -0.09028461 0.10310055 -0.05284992 0.012924548 0.03978699

bn1.weight f4 [256]
00000000: 5a89 883f 04e2 553f 716f 2e3f bf3b 6d3f
00000010: 983b f63e 840a 343f c384 1e3f 8afb 353f
00000020: df33 8d3f fac3 863f 5deb 713f 31f4 333f
00000030: f2d7 893f 1ef9 903f c1df 783f 2aff a33f
00000040: f281 583f f203 243f 9859 6f3f 1d33 9b3f
00000050: a5d1 6b3f e2d9 6c3f 83fd 583f ef61 823f
00000060: 7277 043f 4187 5c3f 5cac 903f af06 253f
00000070: dfda 453f fe81 653f 4818 683f 9792 a73f
00000080: 9924 513f 1724 793f 08d9 813f 0214 653f
00000090: 07d1 973f eeb9 463f a82f 6c3f bbe9 073f
000000a0: ce37 4d3f 784c 5a3f dd8e 393f 1948 753f
000000b0: 7bd5 063f 2f34 5e3f a3b4 493f 3afc 963f
000000c0: 8504 333f 70f8 483f 4abc 573f 0c1b 1e3f
000000d0: 2cbe 1d3f ff1f 463f 1696 693f ea99 543f
000000e0: c271 823f 9454 213f b472 2b3f 6f40 643f
000000f0: 5f45 7d3f 914c 553f 13a4 0e3f e3b6 453f
00000100: 67da 413f 62f8 4d3f 5cf8 6a3f 37af 813f
00000110: 00bf 853f 2ced 5c3f 7be7 733f b849 2a3f
00000120: 46c7 4c3f f296 5c3f 4b71 763f 82ae 563f
00000130: 6e83 753f a683 613f 4231 5e3f 4c0e 903f
00000140: 6f6d 963f 7315 7f3f 669a 7d3f 64fa 793f
00000150: c6d6 4f3f 6847 563f 6d81 503f 502e 453f
00000160: 66be 643f 554d 483f 9310 833f 6940 593f
00000170: 2e8f 2d3f ad8e 693f fcb9 523f 5b10 b93f
00000180: 6735 5e3f 6bc3 603f ecec 6f3f 2360 823f
00000190: 610f 513f ff83 413f 3f84 053f f9a1 853f
000001a0: 12f5 763f 133f 863f 1ec8 4c3f 2824 033f
000001b0: cc9f 843f 0c28 563f f956 5c3f e244 7f3f
000001c0: f1e2 9e3f a460 793f 3d24 5f3f 98f3 5f3f
000001d0: d0da 743f b1f3 3e3f 8f47 723f db74 6e3f
000001e0: 56ed 213f 34ee 4f3f bcd9 383f 28a5 743f
000001f0: 565d 083f d30a 773f cc50 583f 58c4 5c3f
00000200: 767f 2f3f 5c15 7b3f 0e35 a63f cca4 2d3f
00000210: 33f1 613f 7229 5d3f f7f5 a13f 734a 8d3f
00000220: 7f62 263f 72ff 6e3f e2e1 923f ce52 293f
00000230: 666e f63e 9b04 9f3f 4658 293f 1df8 363f
00000240: 6ac6 843f fd52 833f 8a35 693f 7e3d 6c3f
00000250: 0a77 113f 1c05 663f d32d 443f 8df5 363f
00000260: a6b5 873f fd5f 813f 27c8 623f f982 533f
00000270: 5ee3 9b3f e78c 8c3f 1861 513f 09dc 813f
00000280: 87ec 0f3f 33c0 7b3f 8921 9b3f 64d2 423f
00000290: 9fe7 713f 28c6 123f c78e 583f 8767 4b3f
000002a0: 00fc 1b3f fe39 063f 5411 453f d14b a63f
000002b0: 3d8a 693f f0ed 633f 9a26 383f a84d 3c3f
000002c0: bf2a 1c3f ea25 4f3f c945 683f 8921 973f
000002d0: a3d8 e43e 3fb4 593f 588f 583f 60f8 743f
000002e0: 5f9e 853f c187 863f 1b6a 733f b30a 653f
000002f0: 280d 573f 696a 503f 5862 9c3f 1f19 733f
00000300: eaa8 413f 6262 843f 775e 4e3f 9c6e 913f
00000310: 6e94 523f 02fd 713f 467d 843f 60d8 4b3f
00000320: 44d6 353f a2b1 133f 2db3 6a3f 8cad 703f
00000330: 7e7e 243f a8c1 8c3f a402 7b3f d521 7c3f
00000340: f084 7a3f d24c 7c3f bfc0 7e3f a879 3a3f
00000350: 8549 2c3f fbb6 613f f9fc 733f 3364 6a3f
00000360: b3d1 e23e 6851 733f 8053 7c3f c4dc fe3e
00000370: 9f6a ce3e 3d4a dd3e 7abe 6f3f 0d28 123f
00000380: 73be 613f 1ab2 663f b4c2 393f 4801 453f
00000390: 38c9 8b3f a6fc 663f 0544 363f ef35 d93e
000003a0: a95d 7c3f cb89 4e3f 993f a83f 5c7f 4f3f
000003b0: af6f 4c3f 531e 503f a432 863f acbd 873f
000003c0: 0446 6c3f 0554 573f c075 8a3f af06 b33f
000003d0: 3fc0 8b3f 3663 633f 2be4 2b3f f81c 293f
000003e0: 6ecd 363f 0b66 443f b95b 133f 84eb 7d3f
000003f0: bd25 3f3f f4b0 0b3f afa0 543f cec3 0f3f
1.0666916 0.83548 0.68138796 0.9266929 0.4809234 0.70328546 0.6192133 0.71086943
1.1031455 1.0528557 0.9449976 0.7029448 1.0769026 1.1326025 0.9721642 1.2812245
0.8457328 0.6406852 0.93496084 1.2124974 0.9211677 0.9251996 0.8476183 1.0186137
0.5174476 0.8614388 1.13026 0.64463323 0.77287096 0.8965148 0.9066205 1.3091611
0.8169647 0.97320694 1.0144358 0.89483654 1.1860665 0.77627456 0.9226022 0.5309102
0.80163276 0.8527293 0.7248362 0.9581314 0.52669495 0.86798376 0.78791255 1.1795723
0.6992877 0.78504086 0.8427168 0.6176002 0.61618304 0.7739257 0.9124464 0.83047354
1.0190966 0.6301968 0.669719 0.8916082 0.98933977 0.83319956 0.5571911 0.7723219
0.7572388 0.8045713 0.91785216 1.0131596 1.0448914 0.86299396 0.95275086 0.66518736
0.7999157 0.86167824 0.9626662 0.8386003 0.9590367 0.88091505 0.8679391 1.1254363
1.1752146 0.99642104 0.9906372 0.9764769 0.81187093 0.8370271 0.8144749 0.7702379
0.89353025 0.78243 1.0239433 0.8486391 0.677966 0.9123333 0.8231504 1.4458116
0.86800236 0.87798184 0.9372089 1.0185589 0.8166409 0.75592035 0.52154917 1.0440055
0.964677 1.0487999 0.79992855 0.51227045 1.0361266 0.83654857 0.8607021 0.9971448
1.2413007 0.97413087 0.8716467 0.8748107 0.9564638 0.74590594 0.9464044 0.9314706
0.6325277 0.81222844 0.72207236 0.9556451 0.5326742 0.9650089 0.84498286 0.86237097
0.68553865 0.98079467 1.2984941 0.67829585 0.88258666 0.86391366 1.2653188 1.1038345
0.64994043 0.9335853 1.1475184 0.66141975 0.48131102 1.242328 0.6615032 0.7147234
1.0373051 1.0259701 0.9109732 0.9228133 0.56822264 0.89851546 0.7663242 0.7146843
1.060231 1.0107418 0.8858666 0.82621723 1.2178762 1.09805 0.8178878 1.0145274
0.5622029 0.9834015 1.2119609 0.7610228 0.9449405 0.5733361 0.8459286 0.79454845
0.60931396 0.5243224 0.76979566 1.2991887 0.9122656 0.8903494 0.719339 0.73555994
0.61002725 0.8091723 0.90731484 1.1807109 0.4469653 0.8504066 0.84593725 0.9569149
1.0438956 1.0510179 0.9508378 0.8946945 0.8400445 0.8141237 1.2217512 0.94960207
0.7564837 1.0342524 0.8061289 1.136188 0.82257736 0.94526684 1.035073 0.7962704
0.7103007 0.5769292 0.9167965 0.9401481 0.6425551 1.0996599 0.98050904 0.98489124
0.97859097 0.9855472 0.9951286 0.7284188 0.6729968 0.8816983 0.9530788 0.9155914
0.44300613 0.9504609 0.9856491 0.49777806 0.4031572 0.43220702 0.9365002 0.5709236
0.8818123 0.9011551 0.7256272 0.7695508 1.0920782 0.9022926 0.7119754 0.4242396
0.98580414 0.80679005 1.3144408 0.8105371 0.79857916 0.8129627 1.0484204 1.0604758
0.92294335 0.8411258 1.0817184 1.3986415 1.0918044 0.8882326 0.6714503 0.6605983
0.7140721 0.76718205 0.5756183 0.99187493 0.7466696 0.54566884 0.83057684 0.5615815

bn1.bias f4 [256]
00000000: 4c9d 24bf 9924 11bf f570 a3be 81a9 0ebf
00000010: 6b68 6dbe aa86 61be dced 683b 0434 cebe
00000020: 251c 0abf 2f7e efbe 1b7f 37bf 8a00 debe
00000030: 8921 23bf 4714 80bf 93b3 fdbe a757 c1be
00000040: a6c6 0ebf 35bd b2be 08bb 18bf 143c 22bf
00000050: 50fe 2cbf 2bfb 3fbf 48cf fbbe 7d38 5abf
00000060: f518 1abe 1177 f0be 3a08 e8be 36ee cabe
00000070: a287 e5be ebf7 0dbf 08fd 29bf fab1 48bf
00000080: 03b5 bfbe fbf8 23bf a025 5ebf 5ac6 39bf
00000090: c5ab 62bf 9c29 ccbe c17e 1cbf a5a1 2cbe
000000a0: be01 02bf 71a2 fcbe 33a1 72bf 12a9 45bf
000000b0: 1e67 0c3d 8ab1 edbe 6f49 e7be acad 28bf
000000c0: d03a debe 3ce0 42be 570b fdbe af83 67be
000000d0: 58c5 f6bd 50ad 0ebf 5c5c e3be 7180 e2be
000000e0: 0226 b5be 9458 c8be 5910 3cbd a876 0fbf
000000f0: 339a 35bf e9c2 06bf cdda d2be a1f8 bbbe
00000100: 7689 7ebe bd80 0abf d046 bebe e09d 2ebf
00000110: 00a2 e0be 7e2d 17bf 8529 32bf 2fb2 febd
00000120: dd7e afbe 84a4 0dbf 3fb4 36bf f940 60be
00000130: 1eb2 21bf ccbe 28bf ed6a 36bf 98a2 28bf
00000140: b704 10bf 947b ebbe b0dc 5ebf 64d1 1fbf
00000150: 9b4d a9be 4025 15bf c816 cdbe 2fba 00bf
00000160: 271f 06bf f096 d6be d761 02bf e205 02bf
00000170: ae31 12bf 6fd2 a8be 8f41 b0be 2764 fabe
00000180: 42f0 cebe 91cd 2bbf 6258 3abf bd08 d1be
00000190: a630 83be c823 0abf b983 79be 9c53 41bf
000001a0: c8e7 1dbf 1564 3fbf 8a82 9abe 54bd 5bbe
000001b0: f472 10bf b8d5 d2be e126 c3be 4aac 36bf
000001c0: 41b5 43bf 3bf9 25bf a883 02bf 3d77 f8be
000001d0: fec7 cdbe af83 93be cf41 80bf eafc 00bf
000001e0: fac9 9abe 0ec8 cbbe 17c7 a5be a6b5 2fbf
000001f0: 91ff 9dbe cdf6 37bf 1117 c1be 5bf8 57bf
00000200: cc95 78be cd3c 1abf df15 5abf 5e29 3fbf
00000210: 7cf8 11bf bebb 31bf 406b f7be e0ab b5be
00000220: 40af 8ebe c351 16bf 2b52 12bf b4c6 bfbe
00000230: 0d81 38be e446 81bf 34a1 75be 0153 98be
00000240: fd19 fdbe 6f7a 05bf 533b 18bf 07d3 0ebf
00000250: 036e 0abe c967 d6be 01ef d0be 6f15 dfbe
00000260: 5be0 18bf cbd5 2abf e135 0bbf d302 e1be
00000270: 7e6f 7fbf 5054 f4be 8206 c8be 0515 0dbf
00000280: a53a 90be ca72 44bf 49a0 74bf efcf c7be
00000290: 8b30 0fbf e990 56be a39d 15bf 9208 c1be
000002a0: 5051 a4bc 77c7 eabd 3efa f2be 6100 06bf
000002b0: 2c67 29bf 76a2 ddbe 01e1 bcbe 5905 5dbe
000002c0: 424d 21be 7624 27bf 717b 63bf b0f6 9dbe
000002d0: 2b0a 1cbe 77a6 ccbe 21fc 3abf f7c0 e3be
000002e0: fcdb 26bf ac16 93be b942 3fbf ddd1 03bf
000002f0: 7dea 27bf 282c 9cbe bf21 c4be befc 20bf
00000300: a0b7 d6be 79bc 5ebf eb4f e4be 1189 52bf
00000310: d6da e9be 0d1b 74bf 5e2f f8be a2bc 1dbf
00000320: 9d6c 92be aca1 19be efcc 32bf 95ae dbbe
00000330: 1d7c 28be fc8a c9be 10a8 15bf 89dc 32bf
00000340: 6976 3dbf 73ca 38bf e7c9 25bf 0ff7 84be
00000350: 8ac5 56be a730 27bf fd94 a8be 9a82 24bf
00000360: 4d79 1e3d 6432 ecbe 35dd 0abf 7c84 23be
00000370: 8894 1f3d 5725 2bbe 6c37 36bf 3e53 a0bd
00000380: 8690 fcbe 3a99 20bf bbf9 a9be 8a28 f2be
00000390: 01b1 63bf 5035 e0be 01d3 78be 7a5d d3bd
000003a0: 09ed 3cbf f8b0 a9be 889c 93be f068 02bf
000003b0: 6a9b dfbe f68c 58bf 3d45 5bbf c2c2 c7be
000003c0: 34f9 09bf ba49 f8be 6c53 f1be c26f 0ebf
000003d0: 76b2 11bf 0fe2 c4be f7a1 c9be b30c f2be
000003e0: 4a34 a5be 3c2f dabe 3a9f 81be 3b9d edbe
000003f0: 66ce d7be d56e 67be 8f93 16bf f3ff 8dbe
-0.64302516 -0.5669647 -0.31922117 -0.5572739 -0.23184364 -0.22024027 0.0035542166 -0.4027406
-0.53949195 -0.46775958 -0.7167832 -0.43359786 -0.63723046 -1.0006188 -0.49551067 -0.37762186
-0.55771863 -0.34909979 -0.5966039 -0.6337292 -0.6757555 -0.74992627 -0.4918158 -0.85242444
-0.15048583 -0.4696584 -0.45318776 -0.39634866 -0.44830042 -0.5545642 -0.6640172 -0.7839657
-0.37442788 -0.6405179 -0.8677616 -0.72568285 -0.8854335 -0.39875495 -0.6113091 -0.16858537
-0.5078391 -0.49342683 -0.9477722 -0.77211106 0.034278028 -0.46424514 -0.45173213 -0.6589
-0.43404245 -0.19030851 -0.49422714 -0.22608827 -0.12049359 -0.55733204 -0.44406402 -0.44238618
-0.3538056 -0.3913008 -0.045914028 -0.5604043 -0.70938414 -0.5264116 -0.41182557 -0.36713126
-0.24857125 -0.5410269 -0.371634 -0.6820965 -0.43873596 -0.5905379 -0.69594604 -0.124363296
-0.34276477 -0.55329156 -0.71368784 -0.21899785 -0.6316241 -0.6591613 -0.71256906 -0.658731
-0.56257194 -0.4599272 -0.8705549 -0.6242888 -0.3306702 -0.58259964 -0.40056443 -0.50284094
-0.52391285 -0.4191203 -0.5093054 -0.50790226 -0.57107055 -0.32973048 -0.34425017 -0.48904535
-0.40417677 -0.67110544 -0.7279111 -0.4082698 -0.25623053 -0.5396085 -0.24366654 -0.755182
-0.61681795 -0.7476209 -0.30177718 -0.21458942 -0.56425405 -0.4117868 -0.381156 -0.7135664
-0.76448447 -0.6483342 -0.5098214 -0.48528472 -0.40191644 -0.28811404 -1.0020083 -0.50385916
-0.3023222 -0.39801067 -0.32378456 -0.6863655 -0.30859044 -0.71860963 -0.3771291 -0.84363335
-0.24275893 -0.60249025 -0.8518962 -0.74672496 -0.5701978 -0.69427097 -0.48324013 -0.35482693
-0.2786808 -0.5871851 -0.5715663 -0.37456286 -0.18017979 -1.0099759 -0.23987275 -0.29750827
-0.4943389 -0.52139944 -0.5946552 -0.5579075 -0.13518529 -0.41876057 -0.40807346 -0.4357104
-0.5971734 -0.6673247 -0.5437909 -0.43947467 -0.997795 -0.47720575 -0.39067465 -0.551102
-0.28169742 -0.76737654 -0.95557076 -0.39025828 -0.55933446 -0.20953716 -0.5844366 -0.3770185
-0.020058304 -0.11463826 -0.47456545 -0.5234433 -0.6617305 -0.4328801 -0.36890414 -0.21584071
-0.15752128 -0.6529001 -0.8886023 -0.3085227 -0.15238254 -0.39970753 -0.7304097 -0.44483158
-0.6517942 -0.28728235 -0.74711186 -0.514921 -0.65592176 -0.3050244 -0.38306996 -0.62885654
-0.4193697 -0.87006336 -0.44592223 -0.82240397 -0.4567477 -0.95353776 -0.48473638 -0.61615956
-0.2859849 -0.15003079 -0.69843954 -0.42906633 -0.16453595 -0.3936385 -0.5845957 -0.6986776
-0.74008805 -0.72183913 -0.64761204 -0.2596974 -0.20973793 -0.6530861 -0.3292617 -0.6426178
0.0386899 -0.46132195 -0.54243785 -0.15968508 0.03896001 -0.16713463 -0.7117832 -0.07828377
-0.49329013 -0.62733805 -0.33198342 -0.47296554 -0.8894196 -0.43790674 -0.24299242 -0.103205636
-0.73799187 -0.3314283 -0.2883036 -0.5094137 -0.4367326 -0.8459009 -0.85652524 -0.39015776
-0.5389588 -0.4849375 -0.47133958 -0.5563928 -0.56912935 -0.3845372 -0.39381382 -0.47275314
-0.32266456 -0.42614162 -0.25316793 -0.4640902 -0.42149657 -0.22600873 -0.58818907 -0.27734336

bn1.running_mean f4 [256]
00000000: eb4a fe43 ceb1 e643 a83f f343 b009 3443
00000010: c0c2 8cc3 c492 92c2 3b1f 6cc3 778b ed43
00000020: 0a7e 9142 2c92 9fc3 f9bb 6441 4171 bac2
00000030: 07bb fb43 620f a943 797c 8b43 1d24 dd44
00000040: fde6 cf43 0047 fe43 277a 9742 fbbe 4644
00000050: c44e 4ec3 7c31 f342 df41 2342 f17d cfc2
00000060: 7f59 9943 47fc d743 aa61 92c4 9143 1344
00000070: d0e2 3b43 eac3 8a42 e0aa aa42 e4a2 0b44
00000080: 4f95 6a42 75f8 29c3 dd9c a1c2 4ee4 9f43
00000090: b031 9844 284d 6ac1 6082 a841 da05 ad42
000000a0: 0f93 adc3 f088 01bf fb32 6443 382d 63c2
000000b0: b851 50c4 925a 5443 a310 8f43 64e5 0343
000000c0: f086 c9c2 d0bc b943 5efd c5c1 1379 0c44
000000d0: 915d 14c3 e2a5 e843 4617 ba43 be21 3a44
000000e0: c341 7a40 a0de 9442 4a2d acc3 70ee 94c2
000000f0: ce47 24c3 54c8 25c3 86b9 b542 ef6f a941
00000100: 5619 95c2 148e b543 17fa f342 c590 3d43
00000110: 08d6 a442 a40e 4fc3 af5a 9543 560e 1fc4
00000120: bf61 a8c2 43dd d3c3 85d7 a8c3 c71c ea43
00000130: f418 d441 f523 8243 cee8 9243 d3db c443
00000140: f8b6 4944 17bc f542 35e0 ac43 e4d8 c5c1
00000150: cad8 1f43 de4e c542 ead2 cc43 7b72 c9c3
00000160: dec5 5843 332e 8f43 444b ddc2 fb2a 7cc2
00000170: d51c 3643 9eed 7743 dc7b afc4 0788 df44
00000180: 0e56 f542 8906 a043 84a1 c042 4135 0144
00000190: 104a 76c3 a461 1144 1eeb ed42 7f76 13c5
000001a0: ca85 aa43 6532 0941 6c49 2243 1b0b 5d43
000001b0: e4b7 9543 5f99 fec3 811e 45c4 3763 3cc4
000001c0: 4677 3744 0699 1b43 8136 f643 ffdb 2843
000001d0: 679e 1042 f54a 8943 0082 2343 ee43 8cbf
000001e0: 0a83 f442 92f8 8dc3 c3bd 6543 0cfa 9943
000001f0: b635 01c4 205f 4744 6733 cdc2 f128 e743
00000200: da85 0bc3 49f2 f6c2 cc4d af43 ec99 b443
00000210: 4710 5ac2 1795 5ec3 485b ca44 d28f 17c4
00000220: 8d98 9540 85cc 0dc3 5679 1844 5467 8143
00000230: 3913 b4c3 2c3f 0a44 ded6 8343 125c 8444
00000240: 425f 7243 1037 f343 fd58 55c2 936e 7ac5
00000250: e88c 8442 7879 3743 6952 ad43 59ab a6c2
00000260: b417 b4c3 90b3 db42 4e18 87c3 b60e 7bc3
00000270: 8093 1b44 0d96 19c3 3c3c c242 020d 2cc3
00000280: c9b1 ae43 caf7 8ac5 4ed4 8144 e8c9 ab41
00000290: 8086 2643 1818 6a42 8d85 9942 07c6 c6c1
000002a0: 8f7d 09c4 cad4 78c3 f05f dfc3 fe5c d144
000002b0: 541e 9142 f3df a4c1 c043 fac2 b922 5644
000002c0: 0846 0e43 9148 ae43 b939 8d43 69d7 0745
000002d0: dd90 ef43 da21 cbc3 a88e 5143 1e00 fec1
000002e0: 5cad 1042 e32e d8c3 5eca 6bc3 0036 2843
000002f0: 415f 31c3 aa71 1844 48b8 88c3 3bbc 9fc2
00000300: a7cf b5c2 8863 5d43 5e6c bec3 4c2e 9c43
00000310: 1603 08c4 fef2 b142 3cfd 42c2 6fcb 5744
00000320: 84ae 81c3 874d 7543 fd11 cb43 b759 e143
00000330: c7c0 59c3 e8cf 14c3 8bc8 3843 9c78 a643
00000340: 2b41 f2c2 bf1b 4244 c291 7643 a3ff 0044
00000350: d10d 0343 e96a a6c2 c411 4744 ec21 2243
00000360: b697 0bc4 78e4 1f43 ea66 5cc3 be88 5bc1
00000370: 4179 a843 2807 0fc4 3871 3ec4 4294 29c3
00000380: ad4a 6743 fe96 b243 1848 29c3 f052 09c4
00000390: 4526 af44 4308 01c1 9d5e 8b42 5f57 afc3
000003a0: 9cc4 5dc2 5819 d841 3eac fc44 4b84 88c3
000003b0: 6e20 df42 7a16 8dc3 0b7a c8c2 182f eec3
000003c0: 1e05 9c43 9bd8 d843 2c20 7fc0 3d3a 9a44
000003d0: da45 8044 70e6 b2c2 007f d03f f502 5743
000003e0: a855 bf43 1e4a 5a42 f715 5742 a42d e9c3
000003f0: 395f 8a43 ce39 d342 d21e d743 2799 3544
508.5853 461.3891 486.4973 180.03784 -281.52148 -73.28665 -236.122 475.08957
72.74617 -319.14197 14.295892 -93.2212 503.46115 338.12018 278.97244 1769.1285
415.8046 508.5547 75.73858 794.9841 -206.30768 121.59665 40.814327 -103.74598
306.6992 431.97092 -1171.052 589.0557 187.88599 69.382645 85.33374 558.54517
58.64581 -169.97054 -80.80637 319.78363 1217.5527 -14.643837 21.06366 86.51143
-347.1489 -0.50599575 228.19914 -56.79416 -833.27686 212.35379 286.12997 131.89606
-100.76355 371.4751 -24.748714 561.8918 -148.3655 465.29596 372.18182 744.5272
3.9102638 74.434814 -344.35382 -74.4657 -164.28049 -165.78253 90.86235 21.179655
-74.549484 363.11 121.98846 189.5655 82.41803 -207.05719 298.70847 -636.224
-84.19091 -423.7286 -337.68375 468.22482 26.512184 260.2809 293.8188 393.71738
806.8589 122.86736 345.75162 -24.730904 159.84683 98.65404 409.64777 -402.89438
216.77292 286.36093 -110.647 -63.041973 182.11263 247.92819 -1403.8706 1788.2509
122.668076 320.05106 96.31546 516.8321 -246.2893 581.52563 118.95921 -2359.406
341.04523 8.574803 162.2868 221.04338 299.43665 -509.1982 -788.4766 -753.55023
733.86365 155.59775 492.4258 168.85936 36.15469 274.5856 163.50781 -1.095823
122.255936 -283.94196 229.74126 307.9535 -516.83923 797.4863 -102.600395 462.31985
-139.52286 -123.47321 350.6078 361.2025 -54.515896 -222.58238 1618.8525 -606.2472
4.674872 -141.7989 609.8959 258.80725 -360.15018 552.98706 263.67865 1058.8772
242.3721 486.43018 -53.336903 -4006.911 66.27521 183.47449 346.64383 -83.33466
-360.18518 109.85071 -270.18988 -251.05746 622.3047 -153.58614 97.117645 -172.05081
349.38895 -4446.9736 1038.6345 21.473587 166.52539 58.52353 76.76084 -24.846693
-549.96185 -248.8312 -446.7495 1674.906 72.559235 -20.60935 -125.132324 856.54254
142.27356 348.56693 282.45096 2173.4631 479.13174 -406.26447 209.55725 -31.750057
36.169296 -432.3663 -235.7905 168.21094 -177.37209 609.776 -273.4397 -79.86764
-90.90557 221.3888 -380.84662 312.3617 -544.0482 88.974594 -48.7473 863.17865
-259.3634 245.30284 406.14053 450.7009 -217.75304 -148.81213 184.78337 332.94226
-121.12728 776.43353 246.56937 515.9943 131.05397 -83.20881 796.2776 162.1325
-558.3705 159.89246 -220.40201 -13.720884 336.9473 -572.1118 -761.76904 -169.57913
231.2917 357.17963 -169.28162 -549.2959 1401.1959 -8.064517 69.68479 -350.6826
-55.442 27.012375 2021.3826 -273.03354 111.56334 -282.1756 -100.238365 -476.36792
312.03998 433.69223 -3.9863386 1233.82 1026.1829 -89.45007 1.6288757 215.01155
382.6692 54.57238 53.77145 -466.35657 276.74393 105.6129 430.24078 726.393

bn1.running_var f4 [256]
00000000: f94e 9c46 3858 9746 7a24 8446 d65f 0f47
00000010: fdaf 3d46 209c 1146 011f 8046 8251 5146
00000020: 5e3b 7b46 8dc3 2147 84f5 3247 9f52 4846
00000030: 92d1 1047 7009 1347 0193 dd46 6376 1c48
00000040: 6c8b 7d46 8941 9546 4eaf ad46 6668 2447
00000050: 6003 1e47 096f 2646 6187 0646 7ea9 5d46
00000060: b93b b246 1751 7846 500b 4748 1fbb f246
00000070: 32e2 eb45 a42d 6d46 40d8 0246 a52e 0847
00000080: 8953 e646 76dd f846 a02a 5147 2177 ad46
00000090: d546 cb47 2fd2 3846 8926 e745 ce4c 2046
000000a0: 057b 6846 7b41 9746 1231 7947 1ba9 aa46
000000b0: 5ba0 8e47 9a6d 8746 a079 6f46 046f 8046
000000c0: b888 8746 d63e d746 fc0c a146 1fa4 c046
000000d0: 9d3c ab46 9624 a546 f298 9c46 343e 2847
000000e0: 524a 7846 665d 9946 6acf ef46 b421 5a46
000000f0: 8147 4547 81ff 5846 fe56 8746 b1d4 f145
00000100: 639a b146 4ecd 4146 4f76 cc46 f216 bb46
00000110: da49 9846 aca7 0d47 8a2d 5946 de51 1747
00000120: 087d 0246 2d4b 0747 8813 0647 35d2 5447
00000130: af55 5a46 3118 1946 0b90 4946 50c9 de46
00000140: 5ae5 2647 9912 1b46 af28 c246 aeee 2d46
00000150: 524d d945 fdb4 6546 6cab a446 4156 e946
00000160: 4727 8546 ea4c d146 5f3b 0247 2838 7647
00000170: 8e6e 8346 f564 de46 e79a 0848 564b 1a48
00000180: a755 ad45 fd56 2d47 2e05 b946 31dd 8846
00000190: c8a7 3f46 7674 0047 7bca 2c46 74c7 0b49
000001a0: d8a6 8d46 4b94 8b46 02e8 ca46 c82b 2946
000001b0: 2edb 9646 195d c246 7bc0 5347 2a1e 4448
000001c0: 38a0 1d47 87e8 3246 9913 9146 3799 0646
000001d0: 0d37 7c47 8e23 2746 5e6d 8046 47dd 8246
000001e0: 2c85 1446 f37b 5546 0baa 6b46 0c98 c846
000001f0: dfeb 0647 9fcd 1847 e07c d345 71cb ce46
00000200: 3e18 c346 a99f b346 ee7b b246 6a48 1e47
00000210: 11d2 a546 30dd 0747 1043 0648 a5db 7547
00000220: 6d43 1446 517f 3146 0cf0 0347 ba61 6e46
00000230: b9b5 7d46 d698 6847 f5f2 3846 ab88 a047
00000240: c2bd 6d47 0a0b 9f46 591e 2b46 9d35 9949
00000250: 6d64 2c46 9caf 5246 690d 8746 5d45 9046
00000260: 5175 9546 e2f4 2946 eed8 9346 d1b9 9146
00000270: ae65 ff46 52ef 8646 3267 3446 b5ed 0347
00000280: 4fe2 9d46 04e2 e249 9714 9f47 170b b245
00000290: e9df d846 2e2d 2b46 eccf 8d46 2522 f245
000002a0: 2fd2 1547 1112 3a46 f44a ee46 c5ba 0d48
000002b0: cbc3 8d46 d874 8446 dbfe 5646 01a7 3c47
000002c0: 1cb9 f945 f7a7 bb46 56b3 8646 c69f 6048
000002d0: 4007 8646 7fec ab46 d7bc fa45 3fdc 6747
000002e0: 16f0 9746 2277 8d47 1ea8 4247 3b58 ac46
000002f0: 7bc6 0847 71e0 f746 5b86 2048 d630 8b46
00000300: e812 c945 69a6 7a46 d830 8646 e9c4 b746
00000310: 6992 1147 c473 0247 63c5 da46 6ba6 2847
00000320: 3222 6446 c23b 8e46 4d55 a546 a14f 0147
00000330: 7a51 5b46 ae6a 1947 52eb 1746 bee6 eb46
00000340: e944 0347 cd69 2147 e485 6a46 a71a c746
00000350: 23b7 7446 b6f4 2446 464e 1d47 8dfc 8847
00000360: 8ac1 be46 4cf4 2046 3fd8 1f47 8b63 8e46
00000370: 6717 c946 49bf cd46 4e58 7c47 78e1 e645
00000380: 9a73 9346 dc10 9346 4c78 6a46 668f ff46
00000390: 3f48 1c48 57fd 4546 03d4 4246 3e27 8146
000003a0: 7692 9046 0dac 0846 1cdd 3d48 7cc0 9846
000003b0: 9772 5546 60c2 a746 1e5a bb46 89aa 0048
000003c0: a487 9746 86e3 7946 ba3e 4547 8c77 9447
000003d0: 4a5e 6947 adbf 1146 5788 7d46 771b 1b46
000003e0: 75c1 5446 6b22 7f46 1bee 1c46 2164 2547
000003f0: 839f 0e46 4d23 6946 ed69 7146 8b0e 0147
20007.486 19372.11 16914.238 36703.836 12139.997 9319.031 16399.502 13396.377
16078.842 41411.55 45813.516 12820.655 37073.57 37641.438 28361.502 160217.55
16226.855 19104.768 22231.652 42088.4 40451.375 10651.759 8609.845 14186.373
22813.861 15892.272 203821.25 31069.56 7548.2744 15179.41 8374.0625 34862.645
29481.768 31854.73 53546.625 22203.564 104077.664 11828.546 7396.817 10259.201
14878.755 19360.74 63793.07 21844.553 73024.71 17334.8 15326.406 16439.508
17348.36 27551.418 20614.492 24658.06 21918.307 21138.293 20044.473 43070.203
15890.58 19630.7 30695.707 13960.426 50503.504 13887.876 17323.496 7738.5864
22733.193 12403.326 26171.154 23947.473 19492.926 36263.67 13899.385 38737.867
8351.258 34635.176 34323.53 54482.207 13973.421 9798.048 12900.011 28516.656
42725.35 9924.649 24852.342 11131.67 6953.665 14701.247 21077.71 29867.127
17043.639 26790.457 33339.37 63032.156 16823.277 28466.479 139883.61 157997.34
5546.7065 44374.99 23682.59 17518.596 12265.945 32884.46 11058.62 572535.25
18131.422 17866.146 25972.004 10826.945 19309.59 24878.549 54208.48 200824.66
40352.22 11450.132 18569.799 8614.304 64567.05 10696.889 16438.684 16750.639
9505.293 13662.987 15082.511 25676.023 34539.87 39117.62 6767.6094 26469.72
24972.121 22991.83 22845.965 40520.414 21225.033 34781.188 137484.25 62939.645
9488.856 11359.829 33776.047 15256.432 16237.431 59544.836 11836.739 82193.336
60861.758 20357.52 10951.587 1.2550916e+06 11033.106 13483.902 17286.705 18466.682
19130.658 10877.221 18924.465 18652.908 32690.84 17271.66 11545.799 33773.707
20209.154 1.8586245e+06 81449.18 5697.386 27759.955 10955.295 18151.96 7748.268
38354.184 11908.517 30501.477 145131.08 18145.896 16954.422 13759.714 48295.004
7991.1387 24019.982 17241.668 230015.1 17155.625 22006.248 8023.605 59356.246
19448.043 72430.266 49832.117 22060.115 35014.48 31728.22 164377.42 17816.418
6434.3633 16041.603 17176.422 23522.455 37266.41 33395.766 28002.693 43174.418
14600.549 18205.879 21162.65 33103.63 14036.369 39274.68 9722.83 30195.371
33604.91 41321.8 15009.473 25485.326 15661.784 10557.178 40270.273 70137.1
24416.77 10301.074 40920.246 18225.771 25739.701 26335.643 64600.305 7388.1836
18873.8 18824.43 15006.074 32711.7 160032.98 12671.335 12469.003 16531.621
18505.23 8747.013 194420.44 19552.242 13660.647 21473.188 23981.059 131754.14
19395.82 15992.881 50494.727 76015.09 59742.29 9327.919 16226.085 9926.866
13616.364 16328.6045 10043.526 42340.13 9127.878 14920.825 15450.481 33038.543

fc2.weight f4 [128, 256]
00000000: d909 23bd c749 43be 0115 ec3d 62cd 0dbe
00000010: 770e 783d 0dc9 963d 24c0 0abe 35a3 bf3d
00000020: 85a4 183e 3de3 8bbe f879 873d b50d 3ebf
00000030: 4e29 773e 0833 3ebe 4985 3c3e d8d1 363e
00000040: 3c27 30bf 6322 7f3e a641 a83d 0282 45bf
00000050: 9cfa 273e 1893 253e 8082 f0be f604 80be
00000060: c5fc 16be ece9 9c3d da5b 18bf d362 383d
00000070: 5f7d 823e ac3f 01be 816a b33e 773c 693c
00000080: 6a4e a1bf 19e7 923e d962 613e a937 47bf
00000090: 8615 00bf cbb0 133d a1ae a03e 66a7 603d
000000a0: 2977 84be 21df 333f 1180 9d3e a29a 97bd
000000b0: 4328 df3c dee0 03bf c535 0dbe 2fe1 9c3e
000000c0: 2ae3 783d 2481 86bf a4fa 123b 17f5 c0be
000000d0: 5df0 22be 04fa 6b3e db2d 933d 74a1 4dbd
000000e0: 9d1e 163e c91c 35bf ce8d bc3c b720 03be
000000f0: 5d23 9bba 25a8 c2bc 457d 45be 1461 1bbd
00000100: 0d51 0f3e 1fa7 553c 501f 9ebf 2d5f c0be
00000110: 604b 323f f94d 183e df11 6e3e 4862 78bc
00000120: b274 9dbe bb18 42bc c839 653e 7565 c0bf
00000130: 8abb 3e3e e7b0 edbe 263e 16bf 28b2 cd3e
00000140: 5f55 b1bf 42c6 963b f48c cbbe bc82 383f
00000150: e91e 1a3d cf91 e93e 8b33 a73e a293 893d
00000160: 6aa5 0e3e 393e 003f b0fc 9b3e da84 153e
00000170: ea41 ff3c c950 ddbf 5b11 b8bd c154 f7be
00000180: cb07 38bc 53c2 4dbf ab42 633e f912 77bc
00000190: 1291 18be ba11 b3bd 5439 2bbe 72a7 093e
000001a0: ec6d 973d e7f4 babe 4149 f2bd e3af 883d
000001b0: 1bdd 1fbf fbe2 34bf 1a38 753e b6fb d33e
000001c0: c14b b43c 251a 293f 10d7 15be 7774 f0bd
000001d0: 025e d1be dd27 1d3e bc0e 423f 64c8 a0bf
000001e0: c5d2 5cbc 69dc 333e f2d0 da3e 9b37 113f
000001f0: 7368 693d 3c6c 17bd 8c53 0a3e 1c62 9a3e
00000200: cac6 95bf d75a e63e 0fd6 45bc 9e2e d6be
00000210: 88c7 063e 6ef0 1e3e b3f2 4ebe e149 32be
00000220: 70e8 0f3e de62 6bbf bdb5 5ebe 0812 9d3d
00000230: f77e d93c d1ca 91bf a098 a93d 5a9f dfbe
00000240: c0ca 113f f66d 86be 86b4 e9be 4cfd 73be
00000250: 2e7a 6a3e debc a9be 2167 593e f619 8a3d
00000260: fb94 583e 9af8 23bf dc95 33bf f2a7 18bf
00000270: f54d 75be ec51 febe f85b ad3e 7f69 0ebf
00000280: 2528 9d3d bd76 23bf 0a5f 76be 5724 5d3e
00000290: 97b0 d03d d4d7 d7bd ece3 e93d c574 52be
000002a0: 9912 b53d eba6 99bd 7892 df3d 8b50 ec3b
000002b0: 2c7d 363e e1e3 11be d07d aa3e 5a79 ad3d
000002c0: 348b 8abf fe4f 41bd 4c89 4b3e 4f8f 7ebd
000002d0: 8caa 573b 7207 fabd eb23 843e ac40 f3be
000002e0: 3954 d03e 51b0 5d3e 547d 9a3d 0ca3 6fbe
000002f0: 4998 d53c 0e60 bbbd a2bc 0ebf 48dc 9bbd
00000300: e720 643e 266b 74be aaf7 5f3d 5d0d e63e
00000310: c8a3 dd3d d504 123f 138e 6ebd 9533 d43e
00000320: 4282 ed3d 14c5 903c 3ff0 83bd da7f 83bf
00000330: df0d 423e fa1c 58bf 495a 373d 29ad 13bf
00000340: fc47 7e3e 160b 533c 749d 72bf 3549 72bd
00000350: 1447 d93d 27c7 d0bd ad01 3a3e 8537 5f3e
00000360: 1b8f 64ba 6abd 91bf 421b 4b3e 1a21 6dbe
00000370: 2a54 953d 862b e3bd d7ea d93e 9446 e13d
00000380: 15e8 9cbf 36e8 983e 270f e23e 7ad3 d6bd
00000390: 6522 01bf 911b 04be 3998 eb3e 40bd 033e
000003a0: ae26 413e bb26 8bbe e392 c6bc a7e5 6fbd
000003b0: 1ac7 c9be e5e8 b23e 80d7 1b3e f94f 28bf
000003c0: d8c7 0cbf 5127 31be 3be8 f9be 675d 7abf
000003d0: 3620 be3e 4154 8c3d 130c aabe d38a 0c3e
000003e0: ac05 94bd cf7e 523e 3c35 02bf 76de 58bb
000003f0: 3e8f 61bf 1365 923d 0792 e13d daad 393d
-0.039804313 -0.19071113 0.11527444 -0.13847879 0.06056067 0.07362566 -0.13549858 0.09357301
0.14906509 -0.27321807 0.066150606 -0.74239665 0.2413685 -0.18574154 0.18410219 0.17853487
-0.68809867 0.24915461 0.082156464 -0.771515 0.16404194 0.16169393 -0.46974564 -0.25003785
-0.14744861 0.076618046 -0.59515154 0.04501612 0.25486276 -0.12621945 0.35042194 0.014235607
-1.2602055 0.2869194 0.22010364 -0.77819306 -0.5003284 0.036057275 0.3138323 0.054847144
-0.25872162 0.7026234 0.3076177 -0.07402541 0.027240878 -0.51514995 -0.13790043 0.3064055
0.060763516 -1.050816 0.0022427225 -0.3768699 -0.15912004 0.23044592 0.071864806 -0.0502028
0.14660116 -0.7074705 0.023016836 -0.12805448 -0.0011836101 -0.023761818 -0.19286068 -0.037934378
0.13995762 0.013040333 -1.2353306 -0.37572613 0.69646263 0.14873494 0.23249005 -0.015160151
-0.30753094 -0.0118467165 0.22385323 -1.5030962 0.18626228 -0.46424028 -0.5868858 0.40174985
-1.3854178 0.004601271 -0.39755976 0.72074485 0.037627134 0.45619056 0.32656512 0.06717612
0.13930288 0.50094944 0.30466223 0.1460146 0.03115936 -1.7290279 -0.08987685 -0.4830685
-0.011232327 -0.8037464 0.221934 -0.015080207 -0.1489909 -0.087436154 -0.16721088 0.13442782
0.07394013 -0.3651497 -0.11830378 0.06674173 -0.62446755 -0.70658845 0.23947182 0.41402978
0.022008779 0.6605552 -0.14632821 -0.11740964 -0.40892035 0.15347238 0.7580373 -1.2561154
-0.013477986 0.17564549 0.42737538 0.5672547 0.056984376 -0.036968455 0.13508433 0.30152977
-1.1701291 0.4499118 -0.012074961 -0.4183244 0.13162053 0.15521404 -0.2020977 -0.17410995
0.14053512 -0.91947734 -0.21749015 0.07669455 0.0265498 -1.139002 0.08281064 -0.43676263
0.56949997 -0.2625577 -0.4564554 -0.23827094 0.2289817 -0.33151907 0.21230747 0.06743233
0.21150582 -0.6405121 -0.7015054 -0.59631264 -0.2395552 -0.49671876 0.3385923 -0.55629724
0.076736726 -0.63853055 -0.24059692 0.21595894 0.10189932 -0.10539213 0.11420426 -0.20552357
0.08841438 -0.0750254 0.109166086 0.00721175 0.17821187 -0.14247085 0.33299112 0.084704116
-1.0823731 -0.047195427 0.19876593 -0.06214839 0.003290805 -0.12208451 0.25808653 -0.47510278
0.40689257 0.2164929 0.07543436 -0.23402041 0.026073592 -0.0914918 -0.5575658 -0.07610375
0.22278176 -0.23868999 0.05467955 0.4493207 0.108222544 0.57038623 -0.05824096 0.41445604
0.1159711 0.0176721 -0.06442308 -1.0273392 0.18950604 -0.84419215 0.044763837 -0.57686096
0.24832147 0.012881061 -0.94771504 -0.059151847 0.1060926 -0.10194235 0.18164702 0.21798523
-0.0008718834 -1.138593 0.19834617 -0.23157158 0.07291444 -0.11092286 0.4256198 0.1099979
-1.2258326 0.29864663 0.44152185 -0.10489555 -0.50443107 -0.12901141 0.46014574 0.12865162
0.18862411 -0.27177987 -0.024239963 -0.058568623 -0.39409715 0.3494331 0.15218925 -0.6574703
-0.5499244 -0.17300154 -0.4880999 -0.9779877 0.3713395 0.06852008 -0.33212337 0.13724832
-0.07227644 0.20556186 -0.5086248 -0.0033091581 -0.88109195 0.071481846 0.11014181 0.045331813

fc2.bias f4 [128]
00000000: 30c5 38bd a37c 5a3b a478 23bb 8432 0cbd
00000010: fc9e f4bc 117f 44bd dfb0 12bd ab06 11bd
00000020: 5399 cdba 5ce2 0e3d 6316 24bd 5ac7 8b3d
00000030: f335 6dbd 263b 9a3d 43d9 373d 1303 14bd
00000040: bffe 513d ebd1 11bd 8307 573c 6746 233d
00000050: 8377 57bd 6cc2 183b 6e85 a33d bef6 e73c
00000060: 8e64 82bd 50c5 cd3c 0d3d 23bd e1b2 37bd
00000070: ad13 88ba ec92 bd3d 7da7 413d 2ad3 40bd
00000080: c92e b9bd 5d65 853d ff6a 463d 2d71 3c3d
00000090: 3e0f 933d 99bd 633d 6231 6e3d b165 75bc
000000a0: fa3d 5c3c 1f52 943d 8788 293d dc2a 1ebd
000000b0: 5fdf 33bd f08b 61bd d06f d1bc 23bc 673d
000000c0: c4f4 64bd c520 67bd 8e77 eb3c 64b2 dc3d
000000d0: f76d 7abd b8d5 02bd 178b 2cbd c7d7 5abd
000000e0: ce6d 073d e45d 30bd 53ed 34bd aaa5 b53c
000000f0: 9927 703d d71d e43c d405 7cbd 7d9a bd3c
00000100: d942 a0bd 5e9b d0bc 1a8b f13b c6fb b4bd
00000110: 8206 343d f8e4 5abc 517f 0bbd ff17 c23d
00000120: b197 44bd 00a3 81bd 01a1 b9bd 8ca7 27bd
00000130: 09be 833d 287e 08bd 007f ba3d dbd8 e6bc
00000140: 33ab 723b 5b93 473c b319 5f3d 5b02 94bd
00000150: dab0 acbc ce76 e7bb bc10 0c3d c200 7cba
00000160: 6328 e9bb 5ac9 753c 7801 dcbd ad5e a3bd
00000170: 4bc4 ccbc 7abc 3c3d 27c0 de3c 72e1 873d
00000180: 6b92 53bd bee7 49bc 301d a13d 4f14 2c3c
00000190: 2262 04bd f3f6 aabc 7c3f 71bd c04d f1bd
000001a0: 303c c5bc c976 743d 9614 c0bd b958 703d
000001b0: 013a b53d 23ec ea3c 419f 033c 047a a03c
000001c0: fd1d 0cbd 1add 06bc 5e0a 043d 46b1 9c3d
000001d0: 0586 74bd 63da fa3b 2fa4 9e3d ca4e 883d
000001e0: d790 d03c a6b4 7c3b 88e0 fb3c 0348 48bc
000001f0: 7d78 7b3d d020 9dbd 45b6 96bd 62c4 a5bd
-0.045109928 0.003333845 -0.0024943734 -0.034227863 -0.029860966 -0.047972742 -0.03581321 -0.03540675
-0.0015685953 0.034883842 -0.040060412 0.06825133 -0.057912778 0.07530813 0.04488493 -0.036135744
0.051268335 -0.035600584 0.0131243495 0.039862063 -0.05260421 0.0023309244 0.07984434 0.028315898
-0.063668355 0.0251185 -0.039853144 -0.044848327 -0.001038184 0.09256539 0.04727887 -0.04707638
-0.09042127 0.06513474 0.048441883 0.04600637 0.071806416 0.055600736 0.058152564 -0.014977858
0.013442511 0.07242226 0.04138997 -0.038615093 -0.043914195 -0.055065095 -0.025566012 0.056575906
-0.05589749 -0.056427736 0.028743532 0.10776213 -0.061140027 -0.0319421 -0.042124834 -0.053428438
0.033063702 -0.04305829 -0.044171643 0.022173721 0.058631513 0.02784626 -0.061528996 0.023144955
-0.0782525 -0.02546471 0.0073713185 -0.088370845 0.04395152 -0.0133602545 -0.034056965 0.09477233
-0.047996227 -0.06329918 -0.09063912 -0.04093127 0.06432731 -0.033323437 0.091062546 -0.028179577
0.0037028312 0.012181128 0.054467868 -0.07227012 -0.021080423 -0.007063723 0.034195647 -0.000961315
-0.00711541 0.015001619 -0.10742468 -0.07977042 -0.024995944 0.046078183 0.027191235 0.06634797
-0.051653307 -0.012323318 0.07866895 0.010502889 -0.03232015 -0.020869708 -0.058898434 -0.11782408
-0.024076551 0.059683595 -0.093789265 0.058678363 0.08848954 0.028677052 0.008033575 0.019589432
-0.034208287 -0.008231426 0.03223645 0.07651 -0.059698123 0.0076554283 0.07746159 0.06655653
0.02545969 0.0038559823 0.030746713 -0.0122242 0.061394203 -0.07672274 -0.07358984 -0.08094098

bn2.weight f4 [128]
00000000: 8d9b 4f3f 2d6c 5a3f 329d 603f 0f8b 483f
00000010: b428 413f 357e 6f3f e4c3 5c3f 1cda 683f
00000020: be87 463f 1eca 413f a773 793f 00bc 5a3f
00000030: 193b 603f 1d3a 7d3f 6655 6b3f 86d5 5a3f
00000040: 0baa 743f 6634 773f 837b 613f 236f 6a3f
00000050: 3b74 6f3f b2d7 383f 6ceb 633f ace4 6c3f
00000060: 0437 853f 6e02 653f 7a35 663f 7c5b 7a3f
00000070: 2458 663f 491d 6c3f 5cad 783f 2e80 613f
00000080: dce4 843f e2fb 5b3f 5a35 5f3f 5216 723f
00000090: 822e 623f 32f5 6a3f 4e16 4f3f b98e 4e3f
000000a0: 3bd5 663f 7764 823f bbd2 643f 371b 653f
000000b0: 8256 5f3f c72d 713f 625f 6a3f 80ba 663f
000000c0: 9d4f 5d3f bddf 473f e1a6 713f 2300 423f
000000d0: 938b 5d3f bf72 683f 2dec 5f3f e786 683f
000000e0: 4495 743f 4f1a 6c3f f941 3f3f c820 823f
000000f0: ffc3 633f a90e 523f c9ab 643f dce9 693f
00000100: b6ff 613f 8041 673f 122b 693f baf5 803f
00000110: 23ed 4f3f 2abf 603f 3c17 673f 4dd6 6b3f
00000120: 3a7a 6a3f 4b67 773f 4376 513f 4864 4c3f
00000130: d1f4 763f a3a0 813f 5dd3 6b3f c6e3 5e3f
00000140: 9c51 543f a0b1 463f 9511 7a3f 9c57 833f
00000150: 8d88 733f c19a 563f b7b7 7a3f 8a34 553f
00000160: 8548 743f aca8 783f 4e8e 523f f830 723f
00000170: cfb7 673f 4974 6b3f ce2d 7b3f 2589 513f
00000180: 4419 813f 1559 673f 2d6c 743f df35 7c3f
00000190: cb93 633f a2c1 693f a7b6 733f 8563 713f
000001a0: 8dba 7b3f 2bfc 613f 02cb 6b3f bd8c 7a3f
000001b0: 7ea5 673f 346a 683f 967b 7d3f 28cc 473f
000001c0: c180 6d3f 6d0d 673f a26d 6e3f f38f 763f
000001d0: be23 6a3f d4ef 673f fe0f 6e3f bcb3 683f
000001e0: 017c 5a3f 917d 653f f42b 753f 76b9 503f
000001f0: f862 673f 3f75 633f 7dd5 713f 774a 553f
0.81096727 0.85321313 0.8773986 0.78337187 0.75452733 0.9355195 0.86236405 0.9095781
0.77550876 0.7569903 0.97442096 0.85443115 0.87590176 0.989168 0.9192718 0.8548206
0.95571965 0.9656433 0.8807909 0.9157583 0.9353673 0.72204125 0.890311 0.92536426
1.0407414 0.8945683 0.8992535 0.97795844 0.8997824 0.92232186 0.97139525 0.8808621
1.0382342 0.8593122 0.87190783 0.9456531 0.88352215 0.9178039 0.8089341 0.8068653
0.90169114 1.018691 0.8938405 0.8949465 0.87241375 0.94210476 0.9155179 0.90128326
0.86449605 0.7807577 0.9439526 0.7578146 0.865411 0.9080009 0.8746975 0.90830845
0.9554026 0.92227644 0.7471004 1.0166254 0.8897094 0.8205362 0.89324623 0.91372466
0.8828081 0.9033432 0.91081345 1.007499 0.81221217 0.87791693 0.9026983 0.9212387
0.9159275 0.9664199 0.8182108 0.7984052 0.9646731 1.0127147 0.9211939 0.87066305
0.82937026 0.77614784 0.9768308 1.0261111 0.95130235 0.83829886 0.97936577 0.83283293
0.95423156 0.9713237 0.8224839 0.9460597 0.90514845 0.9197431 0.9811677 0.8184989
1.0085835 0.90370303 0.95477563 0.985197 0.8889739 0.91311085 0.9520058 0.9429248
0.9833153 0.882754 0.9210664 0.97871 0.90486896 0.90787053 0.990167 0.7804589
0.9277459 0.9025486 0.93136036 0.963134 0.9146079 0.90600324 0.9299315 0.9089925
0.85345465 0.89644724 0.9577019 0.8153299 0.9038539 0.8885078 0.9446638 0.8331675
