classification_model.pth (torch, 77802 bytes, 14 tensors)

fc1.weight f4 [128, 63]
000000 14 cf 9f bb cb 94 2e bf 76 c5 16 c0 8a 31 a9 bd
       -0.0048769806 -0.6819579 -2.355802 -0.08261402
000010 a5 19 2c be 23 bf 26 3c e1 30 3d bf 7b c1 11 bd
       -0.16806658 0.0101774065 -0.7390271 -0.035584908
000020 16 b2 ad 3e 43 a4 f7 3d 7a 80 e1 3e 8a 1f e6 bf
       0.3392493 0.12091877 0.44043332 -1.7978375
000030 4b c7 65 3f 30 84 02 3e 03 e0 9f be 26 4b 4c bf
       0.8975722 0.12745738 -0.31225595 -0.7980217
000040 8f 31 b2 be dd ba e9 c0 e1 23 3d be 56 ee 8c 3e
       -0.34803435 -7.3040605 -0.18470718 0.27525586
000050 e1 52 05 c1 57 76 22 3e 8c 62 12 3f 21 cc f6 c0
       -8.332734 0.15865456 0.5718162 -7.712418
000060 0e 93 ad be 2e 38 ed be 56 d2 34 c0 19 8b 9b be
       -0.33901256 -0.46331924 -2.825338 -0.3037956
000070 d5 37 97 be 0f 5b 09 c0 f6 53 8f be 39 36 19 3e
       -0.29534784 -2.1461828 -0.27993745 0.1496209
000080 63 e4 6f 40 b3 c6 d3 bd 34 5e a1 bd 61 ee e6 bf
       3.7483146 -0.10340633 -0.07879296 -1.8041497
000090 fc 03 08 bf 8b 05 b3 be f0 80 19 c0 b7 cc 1c 3f
       -0.5313108 -0.34965166 -2.3984947 0.6124987
0000a0 65 0b 19 3f 10 2b 84 bf 3c a0 09 be 84 37 07 3f
       0.5978301 -1.0325642 -0.13440031 0.52819085
0000b0 c1 ce b6 be 60 9b e0 be 7b da 4e bf e2 17 ac bf
       -0.35704616 -0.43868542 -0.80802125 -1.3444788
0000c0 56 28 40 be 93 83 18 bf cc bd 8c bf 7e 0c ba 3f
       -0.18765387 -0.59575766 -1.0995421 1.4535062
0000d0 17 b6 d9 3e a8 b5 77 40 cd cf c7 bc f2 09 18 3f
       0.42521736 3.8704624 -0.02439108 0.59390175
0000e0 a0 90 08 bf ee cd 10 3f 09 a4 39 3f ca ba fb bf
       -0.5334568 0.56564224 0.7251592 -1.9666378
0000f0 8a bb 66 be 25 a7 ca be bf e4 b6 bf 94 71 05 3f
       -0.22532478 -0.39580646 -1.4288558 0.5212643
000100 43 5e d6 3e 8c c6 ab 3d 5f 28 62 3f 79 9d 63 bf
       0.4186879 0.08387479 0.8834285 -0.8891216
000110 f6 13 00 3e a2 83 a7 3e 1f d0 15 bd 20 fb 05 c0
       0.12507614 0.32717615 -0.036575433 -2.0934525
000120 30 6e 58 3d 35 25 b3 3e 55 5f 94 c0 a5 89 77 bd
       0.052839458 0.34989324 -4.636637 -0.060434002
000130 02 2d 74 3e 4d e7 68 c0 bf 98 34 bd a7 2e e4 be
       0.23845294 -3.6391175 -0.044090983 -0.44566843
000140 82 1f 06 41 64 28 3c bd 7e fe 11 bf 88 23 80 40
       8.382692 -0.045936957 -0.5702895 4.0043373
000150 86 65 7e 3e 19 bc 4c 3f db 59 c4 40 13 00 ad 3e
       0.24843416 0.79974514 6.1359687 0.3378912
000160 c8 b0 36 3f 93 c8 24 40 b2 4e 68 be f1 91 24 bf
       0.71363497 2.574742 -0.2268627 -0.6428519
000170 33 bc f5 3f ba b5 7c be c9 e5 29 be 4c c6 3d c0
       1.9198059 -0.24678698 -0.16591562 -2.965228
000180 07 b6 23 3e 5d fc de bd d4 19 2d c0 f4 f9 57 3f
       0.15987407 -0.10887978 -2.7047014 0.84365773
000190 5c a8 78 3e b1 c4 e2 bf 85 e7 2a be 2e 81 9d be
       0.24282974 -1.7716275 -0.1668988 -0.3076262
0001a0 ad 1d 40 3f 03 fd 65 bf 60 ab 4b be 50 7d 41 bf
       0.7504528 -0.8983919 -0.19889593 -0.75581837
0001b0 70 d4 5e be 2f d8 c2 bc 0e d3 3b bf 9e 45 c4 be
       -0.21760726 -0.023784725 -0.7336892 -0.38334364
0001c0 df 56 7e be 0a d8 13 3f 07 49 ca be 15 0a 65 3f
       -0.24837826 0.57751524 -0.3950884 0.8946851
0001d0 54 a9 28 40 9f d3 98 3e 7d 75 5d bf 15 14 12 c0
       2.635335 0.29848954 -0.865074 -2.2824757
0001e0 0b 64 81 bd 96 47 17 3e 9c a9 82 c0 89 ac 00 3f
       -0.0631791 0.14773402 -4.0832043 0.5026327
0001f0 b6 ce 0f 3e aa 67 4d 40 ff a8 2e be c7 52 8b 3e
       0.14043698 3.2094522 -0.17056654 0.27211592
000200 71 21 36 40 66 ee 7d 3f d1 4c f4 bf 31 d4 68 40
       2.845791 0.9919189 -1.9085943 3.6379511
000210 d2 8d d4 be 3c a4 cf 3e 2f 4b c6 3f cd 7e b0 3e
       -0.4151445 0.40554988 1.5491694 0.3447174
000220 9f fd 9c be ee 23 bf 3f 3b 2c 1a 3d a5 97 0b 3d
       -0.30662248 1.493284 0.037639838 0.034080166
000230 1f 4a 8e c0 3d 36 2b 3f 54 c0 93 be a5 c5 7b bf
       -4.446548 0.66879636 -0.28857672 -0.98348457
000240 3b 93 2f bf 07 bf ac be b0 b2 a3 be b9 b2 ab bd
       -0.6858403 -0.33739492 -0.31972265 -0.08383698
000250 da 89 84 bf dc f9 e9 bf 56 e8 e3 3d 54 c0 1a 3e
       -1.0354569 -1.8279376 0.11128299 0.1511243
000260 bb af 87 3f 35 ea 2b bf d3 9c 47 bf f7 07 5f bf
       1.0600504 -0.67154247 -0.7797367 -0.8712153
000270 6c 08 28 3e 0c 26 23 3e 35 48 e0 be 70 bc 68 3f
       0.16409463 0.15932482 -0.4380509 0.9091253
000280 99 65 32 3d bc c6 55 3d b7 3a f2 3e cc 24 93 3d
       0.043553922 0.05219148 0.4731042 0.07184753
000290 85 b3 9e 3f 4b bb 1f be 25 18 20 bd 94 f0 c2 be
       1.2398535 -0.1559879 -0.039085526 -0.38074172
0002a0 9e 84 56 3e 23 6a 2d be 14 88 5a c0 c8 95 85 3e
       0.20949027 -0.16935019 -3.4145555 0.26090837
0002b0 05 d0 3f bf b8 9a 9b 3e 3f b8 3b 3d de f5 62 be
       -0.7492679 0.3039148 0.045830008 -0.22164103
0002c0 a6 c7 df 3f 6b d3 2b bd 1b be 9a bf 07 b0 96 be
       1.7482803 -0.04194967 -1.2089266 -0.29431173
0002d0 21 98 0a bf b8 45 81 be 0f bd 0f c0 1d 4d 21 bd
       -0.5413838 -0.25248504 -2.2459142 -0.03938018
0002e0 d7 25 3e 3f f0 89 fc bf 8a 41 d4 be 08 fe 1f 3e
       0.7427649 -1.9729595 -0.41456252 0.15624249
0002f0 5c b6 66 c0 e2 ba 87 3f 2c d3 d9 3f 70 e4 23 c0
       -3.6048803 1.0603907 1.701757 -2.5608177
000300 16 bc 11 3f 49 3b 0e bf b9 f4 e1 3e 93 00 a5 3b
       0.5692762 -0.5555921 0.4413202 0.005035469
000310 5e 5b bb bf 31 c4 cf bf 19 0b f3 be 4d 6d 5f bf
       -1.4637258 -1.6231748 -0.47469404 -0.87276155
000320 03 c2 2e 3f 4e 25 a5 3e ec 6f 82 be 16 fa c3 bf
       0.6826479 0.32255024 -0.25476015 -1.5310695
000330 27 36 24 3f 33 64 5a bf ef 3d 15 c0 f4 15 bd be
       0.6414513 -0.8530914 -2.3319051 -0.3693081
000340 6a 58 75 3d 10 d1 a7 bf de 30 1c bf e8 22 c0 be
       0.05989877 -1.3110676 -0.61012065 -0.3752663
000350 fe b0 55 c0 ec d4 8a be 5e c0 6b be bf 02 fc 3f
       -3.3389277 -0.27115571 -0.23022601 1.9688338
000360 41 e1 16 3e f8 e9 2b 3f 27 d7 b8 bf 74 ca b4 be
       0.14734365 0.67153883 -1.4440659 -0.3531071
000370 48 85 f4 be ba 07 17 c0 e5 9b 84 be f4 2c 2d 3e
       -0.47757936 -2.3598466 -0.25900188 0.1691168
000380 a5 ba 9a c0 1b c9 c6 be ef 95 a1 3e 3c 9e a6 c0
       -4.8352838 -0.38825306 0.31559703 -5.2068157
000390 30 d0 de be 5f ff 35 3e 18 56 18 c0 84 4f f0 3e
       -0.4351821 0.17773198 -2.3802547 0.46935666
0003a0 7c f0 81 be 0b 7a 57 3f 19 ff 56 3e 9e 31 9c 3c
       -0.25378788 0.841706 0.2099575 0.019066628
0003b0 3b 1d 10 3f 0a e7 8f 3d 05 05 96 3e cf 51 9c bf
       0.562946 0.07026489 0.29300705 -1.2212466
0003c0 24 d5 3c 3e 8a da 0f 3e 1c d2 19 c0 ce 5f 53 3e
       0.18440682 0.1404821 -2.403449 0.20642015
0003d0 33 7f 5b 3e 41 7e 4d 3f 43 e9 09 bf 30 ec 64 bf
       0.21435241 0.80270773 -0.53871554 -0.89422894
0003e0 73 fd a5 be 7f 53 b8 bd 6b f1 c7 3e 42 b3 62 3d
       -0.3241993 -0.090003006 0.39051375 0.055346735
0003f0 25 0c 9a 3e 3f 20 b3 be 18 1e 88 c0 80 41 14 be
       0.3008739 -0.3498554 -4.2536736 -0.14478111

fc1.bias f4 [128]
000000 f3 a9 bb bd 3c c3 91 bd e4 8b f9 ba 4f 1b fa bc
       -0.091632746 -0.07117316 -0.0019038883 -0.0305306
000010 36 39 fd bd bc 2d 97 bd e1 06 b8 bd 5d 6d 75 3d
       -0.12364428 -0.0738177 -0.08985687 0.05991875
000020 59 46 88 bd 18 73 9c bd f2 98 04 be be c7 d9 3b
       -0.06654043 -0.0763914 -0.12948969 0.0066461256
000030 2d 10 56 3d 91 9b 86 3d 04 1f 06 3e 5b 58 cf 3d
       0.05226152 0.06572641 0.13097769 0.10124274
000040 e0 3a b0 bd bc f3 a0 3d 06 ad 2f bd 25 87 f8 3c
       -0.086049795 0.07858989 -0.042889617 0.03033788
000050 1f 3f 3c 3d a1 b7 e6 bc c9 57 83 3d 09 9d 1e 3d
       0.045958634 -0.028163733 0.06413228 0.03872398
000060 d6 d3 5f bc 16 64 ed bc 03 ba 9d 3c 51 33 29 bd
       -0.0136613455 -0.028978389 0.019253736 -0.041308705
000070 8c 5d ba 3c 6c be db bd 51 c1 c8 bd eb 8d 05 bd
       0.022749685 -0.107296795 -0.09802497 -0.032606047
000080 f7 cc 19 bd 5f 94 82 bd 33 98 e1 3d b6 27 49 3c
       -0.037548985 -0.06375956 0.11015358 0.012277534
000090 84 b3 f9 3c 64 3f 3b bd 44 19 c9 bd a2 06 9e 3d
       0.030481108 -0.04571475 -0.09819272 0.07716109
0000a0 73 d2 16 3c 34 3e 9c bd b4 09 c3 3d 7e 42 35 3c
       0.009205448 -0.07629052 0.09523335 0.011063216
0000b0 8f e9 07 3d 5a 48 ad 3d d6 bf ce 3d ae 73 b8 bd
       0.033181723 0.084610656 0.100951836 -0.09006439
0000c0 95 d1 7b bd e6 42 fd 3c e8 b8 66 bc 2a d3 20 bd
       -0.06147917 0.030915689 -0.014082171 -0.03926388
0000d0 69 48 64 bd fd 85 97 bd 5e 93 ff 3d 98 ab c2 3c
       -0.05573312 -0.07398603 0.1247928 0.023763463
0000e0 1b 0b 03 bb 97 1f 05 bc 6e 44 85 bc c5 81 62 bd
       -0.0019995633 -0.008125207 -0.016267981 -0.05529954
0000f0 b4 90 2f be 7a 74 92 bd 41 2d c3 bd 02 8a f8 bd
       -0.17145044 -0.071511224 -0.09530116 -0.12135698
000100 2c ee d4 bc f7 cf 6f bd bb 85 a4 bd e2 76 0a bd
       -0.025992475 -0.05854794 -0.080333196 -0.03380478
000110 2b 2f 9f 3d 89 2b 01 be fe f2 dd 3d 59 90 70 3d
       0.077726685 -0.12614264 0.10837363 0.05873141
000120 d5 39 43 3c af 59 8a bc 71 d7 75 3d 33 78 bc bd
       0.011915644 -0.016888468 0.060019914 -0.09202614
000130 45 83 09 3d 2a 47 b3 bd 6d a5 e3 bd 42 cf b8 bc
       0.033572454 -0.08753808 -0.11115537 -0.022559766
000140 eb f9 ca bd 69 b1 cf bb ad fe 42 3d 01 2f 6c bd
       -0.09910949 -0.0063382876 0.04760616 -0.057662014
000150 fa 1f 15 bd 3b 79 32 3d 87 eb 2f bc 14 fc 11 be
       -0.03640745 0.043572646 -0.010737306 -0.14256316
000160 40 0b 6a 3c ae 10 97 bd 04 7e 9c 3d 3e 91 73 bd
       0.014284909 -0.07376228 0.07641223 -0.059464686
000170 ef 48 09 3d b3 3c ee 3d 5f b1 06 be a3 8a 62 bc
       0.03351682 0.11632671 -0.13153599 -0.013826999
000180 2b bf e1 bd cb d2 ae bd 71 aa bd bd 9b 0a 26 3d
       -0.110227905 -0.08536299 -0.09261025 0.040537458
000190 93 49 67 bd 89 30 21 3d f4 4c b6 bc 18 12 2b bd
       -0.05646665 0.039352927 -0.022253491 -0.041765302
0001a0 b7 a6 71 3d 06 97 5b 3d 99 57 93 3d 26 bb 2d bd
       0.058996882 0.053610824 0.07194442 -0.042414807
0001b0 71 51 0a 3b 0d 41 82 bc f0 a6 ae 3d f9 fe 8c 3d
       0.0021105672 -0.01590016 0.085279346 0.0688457
0001c0 a5 c8 03 3b 32 1d 57 3d 7a 44 c9 3d 40 44 95 bd
       0.0020108607 0.052518077 0.09827514 -0.07288408
0001d0 1b 6f 53 bd 69 fc 39 3d 03 ac db 3c a1 63 d3 bd
       -0.05161963 0.045406733 0.02681542 -0.10321737
0001e0 ab 91 f4 bd 22 34 83 3d 54 74 82 bd 25 75 61 bd
       -0.119418465 0.06406428 -0.06369844 -0.05504336
0001f0 8b 7e 71 3b e1 24 a1 bd b9 e9 04 be 63 39 19 3d
       0.0036849107 -0.07868362 -0.12979783 0.037408244

bn1.weight f4 [128]
000000 42 c8 94 3f 26 d9 45 3f 77 1a 90 3f 43 98 34 3f
       1.1623614 0.7728447 1.1258076 0.7054483
000010 79 c4 71 3f 9b 30 8d 3f e3 3f 90 3f 12 96 52 3f
       0.9444042 1.1030458 1.1269497 0.8226024
000020 d3 4b 29 3f d5 bd 8c 3f 6d 01 80 3f 57 5e 87 3f
       0.66131324 1.0995432 1.0000435 1.0575665
000030 b5 c6 71 3f 6b 3c 71 3f 98 36 8a 3f ac 86 31 3f
       0.9444383 0.94232816 1.0797911 0.6934612
000040 d0 95 8c 3f 9d 1c 53 3f 8c d0 87 3f 83 61 48 3f
       1.0983219 0.82465535 1.0610518 0.7827379
000050 c3 8d 76 3f fa c5 81 3f 44 0d 69 3f e6 3f 74 3f
       0.9631006 1.0138543 0.91035867 0.9541
000060 0d 44 7e 3f e8 46 73 3f 70 a7 6b 3f cc d8 54 3f
       0.9932259 0.9503007 0.92052364 0.83143306
000070 1a f1 52 3f a3 63 67 3f 68 b8 84 3f 02 85 78 3f
       0.8239914 0.9038641 1.0368776 0.97077954
000080 e9 af 75 3f d9 88 8b 3f 38 a2 47 3f 25 32 46 3f
       0.9597154 1.0901138 0.779819 0.77420264
000090 e3 d2 25 3f b9 15 48 3f f1 7d 94 3f 19 46 72 3f
       0.6477491 0.78158146 1.1600934 0.9463821
0000a0 06 2b 4f 3f 7e c2 69 3f b9 d0 7d 3f 4a da 55 3f
       0.80925024 0.91312397 0.9914661 0.8353621
0000b0 6a 29 71 3f d9 d6 78 3f c7 9d 71 3f 05 8a 5c 3f
       0.9420382 0.9720283 0.94381374 0.861481
0000c0 fc 55 84 3f fe fe 7e 3f 33 0a 75 3f 55 90 82 3f
       1.033874 0.9960784 0.9571869 1.0200297
0000d0 21 eb 93 3f 5b 82 53 3f 06 21 5b 3f 91 e0 81 3f
       1.1556131 0.8262078 0.85597265 1.0146657
0000e0 d4 9a 82 3f f3 00 86 3f 82 58 73 3f e2 3d 7e 3f
       1.02035 1.046904 0.9505693 0.99313176
0000f0 78 f5 45 3f 92 39 56 3f 99 31 7d 3f 00 1e 52 3f
       0.7732768 0.83681595 0.98903805 0.82077026
000100 82 96 7e 3f a6 80 5c 3f 5e dc 6e 3f a7 d5 7a 3f
       0.99448407 0.861338 0.93305004 0.9798226
000110 25 50 66 3f 14 d3 7e 3f 45 ae 3f 3f d8 fc 8a 3f
       0.8996604 0.9954083 0.7487529 1.0858412
000120 c4 d7 6d 3f f3 f6 7e 3f ba bb 86 3f 9f f8 84 3f
       0.9290736 0.99595565 1.052604 1.0388373
000130 bf aa 84 3f 63 4e 8a 3f 2c 30 8d 3f c2 4d 8c 3f
       1.0364608 1.0805172 1.1030326 1.096123
000140 1b 50 78 3f ba 65 88 3f 2e 93 80 3f 7e 6f 69 3f
       0.9699723 1.0656044 1.0044916 0.9118575
000150 51 a4 71 3f 29 1c 76 3f f5 e3 64 3f 05 73 2d 3f
       0.9439135 0.9613672 0.89410335 0.6775363
000160 2b f8 7c 3f c3 40 40 3f 79 77 5e 3f d0 e0 87 3f
       0.98816174 0.7509882 0.8690105 1.0615482
000170 b6 fa 2e 3f 11 15 8a 3f 5b 56 87 3f a2 6f 68 3f
       0.68351305 1.0787679 1.0573229 0.9079534
000180 60 86 87 3f 4b e8 a6 3f f1 40 84 3f d4 e4 59 3f
       1.0587883 1.303964 1.0332319 0.8511479
000190 e1 19 73 3f 14 ec 1b 3f 3e ca 82 3f 8f 81 6d 3f
       0.94961363 0.609071 1.021797 0.92775816
0001a0 5b 2b 83 3f 4d ff 3c 3f d6 f0 69 3f 91 c1 5c 3f
       1.0247606 0.7382706 0.9138311 0.8623286
0001b0 01 84 9a 3f f4 fa 93 3f 1e e2 5f 3f 76 82 0b 3f
       1.2071534 1.156096 0.874544 0.5449594
0001c0 e7 b3 82 3f 87 f5 30 3f f2 46 52 3f c7 63 64 3f
       1.0211152 0.69124645 0.82139504 0.8921475
0001d0 db 7c 7d 3f 9b 4e 4a 3f d6 89 61 3f 88 3f 1b 3f
       0.9901864 0.7902619 0.88100946 0.60643816
0001e0 2b 4f 9e 3f 05 89 92 3f d9 db 86 3f 86 b6 34 3f
       1.236791 1.1448065 1.0535842 0.7059101
0001f0 37 bf 91 3f d7 0f 4d 3f 51 f6 9c 3f 96 1a 83 3f
       1.1386479 0.80102295 1.226267 1.0242488

bn1.bias f4 [128]
000000 6d 85 51 bf 5d 88 50 be 59 7d e0 be 6e 14 92 bd
       -0.81844217 -0.20364518 -0.43845633 -0.07132803
000010 8c 8d b4 be 7d 94 0a bf ab 52 40 bf ab 83 71 bf
       -0.35264242 -0.54132825 -0.7512614 -0.94341534
000020 43 04 78 bf db 1b 1b bf 21 24 42 bf 77 54 33 bf
       -0.968815 -0.6058938 -0.7583638 -0.7005076
000030 63 fe f2 be ef 4c 33 bf 86 f6 42 bf 61 9c a4 be
       -0.47459707 -0.70039266 -0.76157415 -0.32150558
000040 72 4c 30 bf 62 ab 6d bf 03 15 11 bf 1e 05 10 bf
       -0.68866646 -0.92839634 -0.56672686 -0.5625781
000050 a2 2f 13 bf d2 86 59 bf c5 c0 cd be 01 8e 5c bf
       -0.57494557 -0.84971344 -0.40186134 -0.8615418
000060 b1 d0 68 bf d4 57 bf be c7 47 e4 be 1d 65 88 be
       -0.9094344 -0.37371695 -0.44586012 -0.26639643
000070 72 8e c1 be ed d8 ab be 89 2e 3b bf 13 f3 10 bf
       -0.3780399 -0.3356394 -0.7311788 -0.566209
000080 dc 7b 23 bf 9c 9c 5f bf 7d 6f 8e bf 68 53 bb be
       -0.6386087 -0.8734834 -1.1127774 -0.3658707
000090 3e f3 8f be 41 bc fe be 6e 99 1e bf da ee 75 bf
       -0.28115267 -0.49753 -0.61952865 -0.96067584
0000a0 9c 4e bb be ce af 60 bf df 58 60 bf c2 d4 32 bf
       -0.36583412 -0.87768257 -0.87635607 -0.6985589
0000b0 9f 78 55 bf 77 81 21 bf 1f 9f f2 be 1e e4 e7 be
       -0.8338718 -0.6308817 -0.47387025 -0.45291227
0000c0 95 d8 19 bf c4 7d 70 bf 6a 24 f5 be 25 9c 4f bf
       -0.600961 -0.93941903 -0.47879344 -0.8109763
0000d0 91 71 43 bf 49 31 49 bf 29 9c ed be bf 40 3c bf
       -0.76345164 -0.7859083 -0.46408203 -0.73536295
0000e0 a6 57 46 bf 12 15 40 bf 0a e6 2d bf 0d b8 4e bf
       -0.7747749 -0.7503215 -0.67929137 -0.8074959
0000f0 82 c5 28 bf 43 4a 07 bf 28 b2 4c bf 43 b9 bf be
       -0.65926373 -0.5284769 -0.79959345 -0.3744603
000100 e0 d6 09 bf 99 44 4a be 28 a1 8c bf 47 0d 1d bf
       -0.538435 -0.1975273 -1.0986681 -0.61348385
000110 91 d0 84 bf 1f 91 31 bf ea 2c b9 be 91 cd 27 bf
       -1.037615 -0.6936206 -0.3616708 -0.65548044
000120 61 fb 84 bf 8b 09 e7 be 84 92 e4 be 6d d3 6f bf
       -1.0389215 -0.45124468 -0.44643033 -0.93681985
000130 5e 6e 38 bf 50 51 41 bf 5d 59 8e bf 9b 1a ec be
       -0.72043407 -0.755147 -1.1121022 -0.46114048
000140 ab f3 0c bf c5 b5 20 bf a1 56 27 bf d6 51 60 bf
       -0.5505931 -0.6277736 -0.6536656 -0.8762487
000150 86 2f 2b bf 96 3c 50 bf d0 57 37 bf 73 62 96 bf
       -0.6686939 -0.81342447 -0.71618366 -1.1748794
000160 d8 5d 5d bf 97 3f 7c be 57 10 04 bf 74 69 1d bf
       -0.8647132 -0.24633633 -0.5158743 -0.61489034
000170 a8 7c 12 be f9 10 48 bf 52 74 03 bf bb 5c 44 bd
       -0.14305365 -0.781509 -0.51349366 -0.047939997
000180 60 95 55 bf c5 fb 4a bf 27 a6 3e bf fb 08 81 bf
       -0.83431053 -0.7929042 -0.7447228 -1.0080866
000190 ad 04 5e bf f0 55 a7 be 3f d4 9a be d6 39 30 bf
       -0.86725885 -0.32682753 -0.30240056 -0.6883825
0001a0 81 39 7c bf 5c d3 0e bf 27 29 2e bf a4 49 f6 be
       -0.98525244 -0.5579126 -0.68031543 -0.48103058
0001b0 b0 d8 75 bf a2 44 30 bf 5e 6a 62 bf b5 83 8b bf
       -0.96033764 -0.68854725 -0.88443553 -1.0899569
0001c0 09 3b 12 bf 52 de 5f bf f7 33 00 bf 60 70 2c bf
       -0.5712133 -0.8744861 -0.5007929 -0.6735897
0001d0 11 66 42 bf a1 65 23 bf 6a 30 89 bf 45 cc 87 bf
       -0.7593699 -0.6382695 -1.07179 -1.0609213
0001e0 ea 47 84 bf 73 92 53 bf 2a e8 23 bf ce e7 21 be
       -1.0334446 -0.8264534 -0.6402613 -0.15811083
0001f0 64 ae 64 bf fd e3 17 bf db 52 75 bf ec a8 44 bf
       -0.893286 -0.5933226 -0.9582955 -0.76820254

bn1.running_mean f4 [128]
000000 21 61 ac c3 79 ad 90 44 b9 8e 6e c4 6c bc 99 c3
       -344.75882 1157.421 -954.23004 -307.47205
000010 ff 6d 94 44 f1 f0 81 c4 36 d1 f3 43 d5 68 9c c3
       1187.4374 -1039.5294 487.63446 -312.819
000020 64 b0 57 43 dd a7 df 44 36 00 dd 42 8f d3 e8 40
       215.68903 1789.2457 110.50041 7.275825
000030 e7 71 a7 43 c1 e8 40 44 c5 0c 11 c4 66 4a 15 c1
       334.88986 771.6368 -580.1995 -9.330664
000040 5c 8e 54 c2 3f 85 3c c4 dc 9a f4 c3 7e 5c 94 44
       -53.139023 -754.082 -489.20984 1186.8904
000050 74 48 23 43 5e d3 37 42 22 58 92 43 57 bd 76 43
       163.28302 45.956413 292.68854 246.73961
000060 cf e0 78 c3 ab 7c 15 c2 9a 45 41 c3 e8 a1 0b c4
       -248.87816 -37.371746 -193.27188 -558.5298
000070 1f bb 15 43 80 02 ff 43 42 23 97 c3 05 1c 82 c2
       149.73094 510.01953 -302.27545 -65.054726
000080 af 7b 2b 44 c8 69 90 c1 ce 57 5a 43 22 2e 71 44
       685.93256 -18.051651 218.34299 964.7208
000090 78 19 87 44 41 c1 79 c4 d7 31 83 c4 36 13 a7 42
       1080.7959 -999.0196 -1049.5575 83.53752
0000a0 ab 04 5a 43 77 a6 26 43 69 6f 45 44 18 42 37 44
       218.01823 166.65025 789.7408 733.0327
0000b0 f8 a3 e5 c3 f5 19 62 c4 99 11 a5 44 ad 3e 5d 44
       -459.281 -904.4056 1320.5499 884.9793
0000c0 a4 9d 2d 44 18 8f f9 43 0d 22 84 c1 49 ba 0e c4
       694.46313 499.11792 -16.516626 -570.9107
0000d0 d4 c9 85 c4 86 34 bc c2 f4 58 0c c4 8c 2c e5 43
       -1070.3071 -94.102585 -561.3899 458.34802
0000e0 52 bd 68 43 c4 b3 11 44 49 a3 87 c1 67 75 4a c3
       232.73953 582.80884 -16.95473 -202.4586
0000f0 0a 11 b2 c4 5a 7f 98 c3 99 2c d3 43 1a f6 43 c3
       -1424.5325 -304.99493 422.34842 -195.96133
000100 f4 2a 8e c3 07 80 4f c3 91 8c 84 42 1c 5e bb 43
       -284.33557 -207.5001 66.27454 374.73523
000110 1e 54 5c 43 a3 b6 62 41 8f 33 f3 c2 b1 7b 7e 44
       220.32858 14.169589 -121.6007 1017.9327
000120 e3 d3 6e c5 af c0 64 44 10 be ba 44 e9 e5 80 c4
       -3821.243 915.0107 1493.9395 -1031.1847
000130 13 21 bc c2 e7 57 e3 43 df a5 2e c3 66 56 b0 c3
       -94.0646 454.68674 -174.64793 -352.675
000140 df e9 e4 c3 b8 43 b9 c4 e4 e6 0f c3 a6 5b 4d 42
       -457.82712 -1482.1162 -143.90192 51.3395
000150 43 14 ed c3 95 51 71 c2 39 a3 91 c3 1a fe 85 43
       -474.1583 -60.32967 -291.27518 267.98517
000160 c5 f9 a6 42 c2 78 21 c4 24 a9 e1 43 05 de 4f 44
       83.48783 -645.88684 451.3214 831.46906
000170 ab 95 24 44 81 48 17 43 91 4a 2a c4 36 3a 5d c3
       658.33856 151.28322 -681.1651 -221.22739
000180 53 96 29 43 26 41 c1 42 a9 9a e7 41 19 c9 1e c4
       169.5872 96.62724 28.950518 -635.14215
000190 b1 9f f7 43 f2 70 c6 c3 5f f3 8a 44 26 89 d1 43
       495.2476 -396.8824 1111.6053 419.07147
0001a0 3a 9a ba c3 2d 1c 38 44 be cb 1b 44 a4 08 3e 42
       -373.2049 736.44025 623.1835 47.50844
0001b0 ae 26 44 c4 c7 5f 17 44 23 5a 0a c4 05 be c8 44
       -784.6044 605.4965 -553.4084 1605.9381
0001c0 e7 54 37 44 f4 0e b6 43 6d 8d cc 43 68 7a 8a c4
       733.3266 364.11682 409.1049 -1107.8252
0001d0 f9 a3 9f c4 27 57 1c c4 a1 71 e5 c3 ff 07 e8 44
       -1277.1241 -625.36176 -458.88773 1856.2499
0001e0 a2 d1 7f c4 0e 4a ab 43 f7 0f ab c4 02 42 94 44
       -1023.2755 342.57855 -1368.4989 1186.0627
0001f0 0d 80 be c4 cd 48 02 44 2e c1 a9 42 06 9b 57 44
       -1524.0016 521.1375 84.877304 862.42224

bn1.running_var f4 [128]
000000 7b a1 6c 44 6b b0 ba 44 51 4b 6f 45 77 3d 0b 45
       946.52313 1493.5131 3828.7073 2227.8416
000010 14 ab f8 43 4d 44 be 44 99 b6 e7 44 ac 41 b8 44
       497.33655 1522.1344 1853.7062 1474.0522
000020 a4 0a 1b 45 a4 47 8c 44 43 5e 29 44 f7 3e d3 44
       2480.665 1122.2388 677.47284 1689.9677
000030 7b b9 c6 44 c6 1e a2 44 37 62 0b 44 a2 47 ab 44
       1589.7963 1296.9617 557.5346 1370.2385
000040 c6 f9 30 44 9a e0 95 43 c9 54 8e 44 59 7a 81 44
       707.9027 299.7547 1138.6495 1035.8234
000050 d3 18 8b 44 3c 21 5d 44 03 f6 72 44 b6 bc 21 44
       1112.7758 884.5193 971.84393 646.9486
000060 40 51 8e 44 ab df 51 44 e2 79 57 44 d5 0c 4b 45
       1138.5391 839.4948 861.9044 3248.802
000070 8b dc 23 45 56 cd 86 44 30 9c 60 44 0b b1 00 45
       2621.784 1078.4167 898.4404 2059.0652
000080 9a 18 84 44 03 f2 56 44 db 9f 96 43 52 05 f0 44
       1056.7688 859.78143 301.24887 1920.1663
000090 d4 0c d7 44 0a bc dd 44 6b 7f 90 45 1e e6 eb 43
       1720.4009 1773.8762 4623.9272 471.7978
0000a0 f1 0d 23 44 29 47 89 44 28 7f c3 43 b1 d5 25 44
       652.21783 1098.2238 390.9934 663.3389
0000b0 e6 e0 18 45 6e a6 7f 44 ed 27 31 45 61 99 ae 44
       2446.0562 1022.60046 2834.4954 1396.7931
0000c0 4f f2 02 45 26 d2 16 44 78 84 1f 44 2a d3 40 45
       2095.1443 603.28357 638.0698 3085.1978
0000d0 75 03 9e 44 fe 86 0c 44 69 1b 55 44 2d e3 2d 44
       1264.108 562.10925 852.4283 695.5496
0000e0 0c a9 d1 43 3d f7 5d 44 70 fe 01 44 32 05 e2 44
       419.32068 887.8631 519.9756 1808.1624
0000f0 0c 4b 86 44 74 50 05 44 ee 54 f6 43 cb 15 a9 44
       1074.3452 533.2571 492.6635 1352.681
000100 43 9c 62 44 c0 68 d5 44 fc 7d 76 44 f4 ef 1b 44
       906.4416 1707.2734 985.9685 623.74927
000110 b6 b7 02 44 12 71 cd 44 8e 9b da 44 4b 04 90 44
       522.8705 1643.5334 1748.8611 1152.1342
000120 9d 06 89 46 71 62 b5 44 7e 29 1b 45 68 08 1a 44
       17539.307 1451.0763 2482.5933 616.13135
000130 6b 22 8d 44 90 ca df 44 5a 7a 40 45 ad 08 b9 44
       1129.0756 1790.3301 3079.647 1480.2711
000140 79 dd 8e 45 b5 0b b0 44 b1 79 fd 43 ca a5 22 44
       4571.684 1408.3658 506.9507 650.59045
000150 67 e2 df 43 ca 6d ef 43 4b da d8 43 31 7d a7 44
       447.76877 478.85773 433.7054 1339.9122
000160 a4 55 c8 43 d9 45 c1 44 ab 31 1d 44 03 3c 83 44
       400.66907 1546.1827 628.77606 1049.8754
000170 65 2c 42 45 b1 ff c6 44 6d 43 81 43 1a a4 29 45
       3106.7747 1591.9904 258.52676 2714.2563
000180 ae bd 79 44 b3 88 6b 44 54 0d ee 44 ac 91 fa 44
       998.96375 942.1359 1904.4165 2004.5522
000190 c2 0f f4 43 75 55 6c 44 bd f6 40 44 60 95 07 44
       488.1231 945.33527 771.8553 542.334
0001a0 9f e2 2e 44 91 66 3c 44 3c fa 67 44 41 3f 60 44
       699.54095 753.6026 927.9099 896.98834
0001b0 9b 90 51 45 75 fe 4b 44 50 dc 9f 43 42 46 94 45
       3353.0378 815.9759 319.7212 4744.782
0001c0 a8 db e0 44 e4 1e 94 43 e2 56 76 44 02 41 c0 44
       1798.8643 296.24133 985.35754 1538.0315
0001d0 c5 ef 02 45 18 6f 86 43 ba 88 1c 44 e2 7f 3c 46
       2094.9856 268.86792 626.13635 12063.971
0001e0 c0 a9 89 45 34 a5 33 45 5d 2b a9 44 9f 78 5c 45
       4405.2188 2874.3252 1353.3551 3527.5388
0001f0 bd 6b 35 44 85 23 a1 43 1f b3 24 44 60 1a fe 43
       725.6834 322.2775 658.79877 508.20605

fc2.weight f4 [64, 128]
000000 3b db 1b be 81 fe 9e 3d 00 fd 0c be 9d f9 93 be
       -0.15220349 0.077633865 -0.13768387 -0.28901377
000010 ed da 92 bd 97 3a 43 be db d4 01 3f b7 1b e8 bd
       -0.07170663 -0.19065319 0.50715417 -0.11333411
000020 df ba c8 be 32 71 82 3e b8 41 1f bf 4f 7d 74 3e
       -0.3920507 0.25476986 -0.62209654 0.23875926
000030 89 cc c1 3e 40 60 02 3f 80 3b a7 be 15 36 0b bf
       0.3785136 0.50928116 -0.32662582 -0.543794
000040 5e 3e 91 be be 7f e7 3d c4 34 0e 3c 6b d2 8a 3f
       -0.28367895 0.11303662 0.0086795725 1.0845464
000050 33 06 87 3e aa 22 6e 3d 5a b7 62 bd 23 74 b0 3d
       0.26371917 0.058138527 -0.05535064 0.08615901
000060 d9 5b 8b 3d c9 80 9b be d8 f5 89 3f 44 4b a8 be
       0.06804628 -0.30371693 1.077815 -0.32869923
000070 1f 7e 69 be bf 9d 03 3e ed 4e d6 3e 52 ac 7e be
       -0.22802018 0.12853144 0.4185709 -0.24870422
000080 b1 30 b2 3e bd a0 40 3e 84 bb 1f 3e be 14 05 3f
       0.34802774 0.18811317 0.15598875 0.51984775
000090 67 c9 c6 3f 55 61 ec bd 4f bc 4d bf fa 37 8a be
       1.5530213 -0.11542002 -0.8036546 -0.26995832
0000a0 fc ac 11 3c 2a 8b 9a bf a0 7c d2 3d 6c fb 1c be
       0.00889134 -1.207372 0.102776766 -0.15330285
0000b0 79 95 9f be 7d 82 d9 be 7a 30 37 bc 7e c3 b8 be
       -0.31168726 -0.42482367 -0.011180991 -0.3608665
0000c0 05 16 3c 3e 27 05 90 3e 53 be 4e 3e 96 63 de be
       0.18367775 0.2812893 0.2018979 -0.43435353
0000d0 ad 4e 1e be cf 51 0d 3f 28 82 4d bf f6 5c 5c 3f
       -0.154597 0.55202955 -0.8027673 0.8607935
0000e0 be 3e 21 bf f2 04 bb be 58 29 3d 3f 17 b2 23 be
       -0.6298636 -0.3652721 0.7389121 -0.15985905
0000f0 e0 9b 1f bf 0a 1e 81 be c2 6e e6 3b 0a 3c a7 be
       -0.6234722 -0.2521823 0.0070322463 -0.32662994
000100 b3 a4 d6 be e2 bc 4a 3d 3f e1 56 bf 06 c8 40 3f
       -0.4192253 0.04949654 -0.8393745 0.7530521
000110 5c f5 0d be 70 e2 e3 3d 48 00 f1 bc b9 b6 01 bf
       -0.13863128 0.11127174 -0.02941908 -0.5066944
000120 e6 f3 bd be 64 d9 12 bf ec 04 6e bc 9c d9 d4 3f
       -0.37100142 -0.5736296 -0.014527541 1.6628909
000130 99 18 26 3e a1 c9 71 bf 3d 11 00 c0 b8 9a ad be
       0.16220321 -0.94448286 -2.0010521 -0.33907104
000140 90 b9 ad bf 9b 8f f8 be 45 ab fc 3c cf 55 1e b9
       -1.3572254 -0.48547062 0.030843386 -0.0001510002
000150 2a 3b 9d 3f c3 a0 89 be 3a 1f 15 bf 02 ac 00 3d
       1.228368 -0.26880464 -0.5825077 0.03141404
000160 80 87 a0 be b3 3a 2c 3e a5 3d 75 3e cd db a6 3f
       -0.31353378 0.16819267 0.23949297 1.3035828
000170 8e 47 de 3d a4 76 a7 3e 47 89 3a be a3 c9 5d be
       0.10853492 0.32707703 -0.1821643 -0.2165895
000180 b9 68 92 3f 66 48 03 bd 93 41 80 be c3 61 d7 bd
       1.1438209 -0.032051466 -0.2505003 -0.105166934
000190 92 06 6e 3e bf c2 89 3e 4a be f3 bd 6f d3 0a bf
       0.23244694 0.26906392 -0.11901529 -0.5422887
0001a0 6d 70 e4 3e ac b1 88 3f 5b db 12 3f 16 69 9c 3d
       0.44617024 1.0679221 0.5736596 0.07637231
0001b0 4d 24 fc bf 95 a9 ca 3e f2 0a 98 bf 61 d0 7c bf
       -1.9698578 0.39582506 -1.187834 -0.9875546
0001c0 62 41 36 bc 13 4a 0b be 25 a3 90 be 83 d7 1e bf
       -0.011123987 -0.13602476 -0.2824947 -0.62047595
0001d0 5d c7 0f bf 9f 69 dd bd 4e 88 93 3e 55 8d 72 be
       -0.5616358 -0.10811161 0.2881493 -0.23686726
0001e0 5f 05 1a bf df 5b c6 be ef a5 9e bd 07 55 49 3e
       -0.60164446 -0.38741967 -0.07746493 0.19661342
0001f0 bb 5d b7 be b1 07 16 bf e0 db 58 be 36 82 89 be
       -0.35813698 -0.58605486 -0.21177626 -0.26857156
000200 37 7b de 3e a8 d5 23 3e 6b 38 3b 3f 26 63 88 3e
       0.4345338 0.15999472 0.7313296 0.26638144
000210 b5 05 6a be da 1b 34 3e 64 69 c8 bf aa 7a 26 bf
       -0.2285374 0.1758875 -1.5657163 -0.6503092
000220 43 fb c6 be 61 33 99 3f e5 d7 c0 bc 04 d8 b5 3e
       -0.38863572 1.1968805 -0.023540447 0.3551637
000230 e5 f2 42 3e 06 83 6f 3e df 61 70 3f 9f d3 df 3d
       0.1903797 0.23389825 0.9389934 0.109290354
000240 b7 ce 7f bd 93 60 1f 3f b4 8a d7 be aa 13 f5 be
       -0.062452998 0.62256736 -0.4209801 -0.47866565
000250 2e 39 95 3e a6 50 48 bf eb ae 20 bc 67 c0 b4 3e
       0.29145187 -0.7824806 -0.009807329 0.3530304
000260 27 34 91 be 95 56 b1 be 2c 8f 31 3e fb 69 17 3d
       -0.28360102 -0.3463637 0.17339772 0.036966305
000270 d6 66 8e bf 4c 09 00 3f 8e a1 24 bc 99 2c 8b bf
       -1.1125133 0.50014186 -0.010048283 -1.0872985
000280 da 45 a0 be 0a 3d 71 bf f9 89 a8 bf a6 b8 82 bd
       -0.31303293 -0.94233763 -1.3167106 -0.06382875
000290 ec c6 09 3d 1e 04 fe be cd 3a 3d 3f 35 20 54 be
       0.033636972 -0.49612516 0.7391785 -0.20715411
0002a0 7f 3d e1 3e 00 b9 aa 3e 52 df e3 bc 08 ff c1 3e
       0.4399223 0.3334427 -0.027816448 0.37889886
0002b0 bc d5 b2 3d 84 16 04 bf 99 23 b4 be 99 fe 4c 3e
       0.08732173 -0.51596856 -0.3518341 0.20018996
0002c0 30 e7 f8 3c bb 81 74 bf e1 8e aa 3e 62 8d 9a 3e
       0.030383676 -0.95510453 0.33312133 0.30185992
0002d0 f3 48 8b 3f 1f 7d 1a bf a3 de ac 3d a0 0a 7c 3d
       1.0881637 -0.6034717 0.08440902 0.06153357
0002e0 4b f8 85 bf 13 b6 a0 3f 12 12 8b bd d1 f6 1e bd
       -1.0466398 1.2555565 -0.06790556 -0.0388096
0002f0 32 45 c2 3d 98 06 b4 be 59 bc 18 3f 52 cd 21 bf
       0.09485854 -0.3516128 0.59662396 -0.6320392
000300 6d b7 e3 bc 8b f0 14 3e f8 e7 a3 bf 4e d5 4c 3d
       -0.027797425 0.14544885 -1.2805166 0.05000811
000310 b4 42 f7 be 02 ef 07 be ea c6 24 bd b0 22 01 3f
       -0.48293078 -0.13274768 -0.04022876 0.50443554
000320 a2 c0 af bf 6b e1 d8 3e 28 0b 68 3f b6 8a 0b bf
       -1.3730662 0.4235948 0.90642023 -0.5450853
000330 68 22 5c 3d bc 5c 23 3f e8 dd c9 bf c4 ca ce 3c
       0.05374375 0.63813376 -1.5770845 0.02524317
000340 e2 0b d9 be 5f 50 5a be 55 7b 7f bf a1 4a 83 bf
       -0.42391878 -0.21319722 -0.99797565 -1.025715
000350 79 92 14 3f a2 d1 d5 3e f8 45 06 3e 9d fa 12 bf
       0.58036 0.417615 0.13112628 -0.57413656
000360 8f 6d 6b bf 46 56 0e be e1 b6 a4 3e 0b 2d 32 3e
       -0.9196405 -0.13900098 0.32170776 0.17399995
000370 3a 87 08 be 6d f7 8e 3e 46 8d a7 bf 1c eb 92 bc
       -0.13332835 0.27923146 -1.3089988 -0.017934375
000380 7e e1 d8 be 78 1d 43 3f 4b 49 08 bf b5 6c 15 be
       -0.42359537 0.7621684 -0.53236836 -0.1459225
000390 44 ca ea be 1a ee c0 be 9d 64 27 3d 27 e4 70 bf
       -0.4585744 -0.37681657 0.040867437 -0.9409813
0003a0 9b 8c 95 bd c6 00 45 be f4 3e c0 3e 8b a7 83 3f
       -0.07302209 -0.19238576 0.3754803 1.0285505
0003b0 97 c0 ec bf 4f 2c 4d 3f a3 cf 73 bf 58 8d cc be
       -1.8496274 0.80145735 -0.95238703 -0.39951587
0003c0 14 7f 4f 3f d3 6e b4 be 06 1e 19 3e 1b 9a 5d 3d
       0.8105328 -0.35240802 0.1495286 0.054102045
0003d0 1e 28 0c bc 1c ac 7d 3d 7c 76 e4 3d 19 30 7d bf
       -0.008554487 0.061931714 0.111554116 -0.98901516
0003e0 06 5c db 3e 5e 99 1e 3e b3 44 74 3f 2d eb 88 be
       0.42843646 0.15488192 0.95417327 -0.26741925
0003f0 dd 2e 20 3f 50 e7 ff be a9 80 37 3f 85 93 69 3f
       0.6257151 -0.49981165 0.71680695 0.9124072

fc2.bias f4 [64]
000000 68 24 cc bd 4e cd ac bb 6c db 60 bc f2 69 4b 3d
       -0.099678814 -0.0052734977 -0.013724189 0.049661584
000010 d4 68 ce 3c 99 7f 8c bd c7 1d d0 bd bb be 4e 3d
       0.02519647 -0.06860275 -0.101619296 0.050474863
000020 45 51 91 3b 7b 70 e4 bb e9 15 d1 bd e5 75 b5 bb
       0.004434737 -0.0069714165 -0.10209257 -0.0055377358
000030 77 c8 34 3d 4a ab 30 3d 1e 20 82 3d 61 0e ff 3b
       0.04413649 0.043132104 0.06353782 0.0077836965
000040 14 df d4 bd 38 39 d2 bc 39 98 95 3c 90 bd fe 3c
       -0.10394111 -0.02566205 0.018261062 0.03109625
000050 77 36 32 bd 9b 88 32 3c e2 a6 75 3d 64 68 23 bd
       -0.043508973 0.010896827 0.059973605 -0.039894477
000060 18 36 b9 bb 32 04 60 3c 12 c8 90 bc 27 70 98 3c
       -0.0056522004 0.013672875 -0.017673526 0.018608166
000070 92 8a 46 3b b0 18 cd 3d c1 62 87 bc 1e 89 59 3b
       0.0030294997 0.100144744 -0.016526582 0.00331933
000080 48 8f 25 3d 6a 76 c5 bc 0f e8 cd bd 45 ae 81 bd
       0.040419847 -0.024104316 -0.10054027 -0.063320674
000090 af 4d 97 3d 57 a1 64 bb 39 0b 8a 3d 12 bf 33 bd
       0.07387864 -0.0034886205 0.06740422 -0.04388339
0000a0 7e a4 b9 3c 22 36 df bd 37 12 2f bd 62 79 d8 3c
       0.022661444 -0.10898997 -0.04274198 0.026425067
0000b0 83 79 aa 3d 7d 22 02 be e4 8f 86 3d a4 79 16 bd
       0.08323958 -0.12708469 0.06570414 -0.0367371
0000c0 7b 48 7c 3d 25 bc c9 bd cb c2 69 bb f9 86 ad bd
       0.06159256 -0.09850339 -0.0035669084 -0.084730096
0000d0 8a 26 37 bc 2a 8f fe 3c a3 16 55 3d 84 7a 88 bc
       -0.011178622 0.031074125 0.05202354 -0.016659983
0000e0 84 c1 63 3d 8c 44 2c 3d 92 eb 8d 3c 81 f5 15 bd
       0.055604473 0.04205756 0.017324243 -0.036611084
0000f0 50 74 b8 3c 58 c5 1c 3c 46 dd b2 3c f4 c5 f9 ba
       0.0225164 0.009568535 0.021834027 -0.0019056187

bn2.weight f4 [64]
000000 37 67 ed 3f 8f 29 e2 3f 22 0e 0b 40 bd c3 02 40
       1.8547124 1.7668933 2.1727376 2.043197
000010 71 10 e3 3f 81 a8 18 40 d8 6f 07 40 7b 17 09 40
       1.7739393 2.3852847 2.1162014 2.1420581
000020 36 8a f2 3f 31 32 e8 3f 9e 42 0e 40 10 c1 07 40
       1.8948429 1.8140317 2.222816 2.1211586
000030 39 74 05 40 40 9c f5 3f 68 fa e3 3f a9 8e e9 3f
       2.0852187 1.9188309 1.7810793 1.8246661
000040 23 b8 09 40 ba 73 03 40 6a c1 03 40 84 09 0c 40
       2.1518638 2.0539384 2.05868 2.1880808
000050 1b a3 f1 3f ad 2c fe 3f 9d 87 0a 40 6c cb 01 40
       1.8877901 1.9857384 2.1645272 2.028041
000060 e2 0d f5 3f 6a 9d 10 40 50 f4 f9 3f 08 4d 01 40
       1.9144862 2.2596078 1.9527683 2.0203266
000070 fc 5c f9 3f c2 9d db 3f 89 76 f4 3f 92 0e 0d 40
       1.9481502 1.7157519 1.9098674 2.2040143
000080 a5 e5 02 40 37 c3 35 40 61 9b fc 3f cb e8 fd 3f
       2.0452664 2.84004 1.9734918 1.9836668
000090 22 7d 09 40 10 cd f8 3f ab c8 00 40 40 4f f8 3f
       2.1482625 1.943758 2.0122478 1.9399185
0000a0 82 9f 0b 40 21 86 fa 3f e3 c5 f4 3f 22 86 0a 40
       2.1816106 1.9572183 1.912289 2.1644368
0000b0 71 ee ff 3f 3b 1a fd 3f 92 d6 eb 3f da 3a f8 3f
       1.9994642 1.977363 1.8424857 1.939296
0000c0 48 f7 e0 3f 70 43 f7 3f 26 3b 1d 40 58 6c 05 40
       1.7575464 1.9317455 2.4567351 2.0847378
0000d0 88 79 e0 3f 2d 45 01 40 14 b2 09 40 99 45 0c 40
       1.7537088 2.0198472 2.151494 2.191748
0000e0 3f 8f d3 3f e6 60 fc 3f 55 f5 01 40 fb ff 0d 40
       1.652809 1.9717071 2.0305989 2.2187488
0000f0 7f 06 fc 3f ae a7 00 40 3f fc e9 3f b4 c4 27 40
       1.9689482 2.0102344 1.8280104 2.6213808

bn2.bias f4 [64]
000000 0c 6a 88 be 8d bd 50 bc aa 14 5b be 2d 3b 32 be
       -0.26643407 -0.012740505 -0.21394601 -0.17405386
000010 a7 fa f9 be 69 09 fd 3d 70 a5 4c 3e b5 13 1d bf
       -0.48824045 0.123553105 0.19984984 -0.61358196
000020 01 59 9a be aa a3 bc 3d fb 53 bc bd d5 85 51 3d
       -0.3014603 0.09210904 -0.091957055 0.051153023
000030 f2 30 bc be 72 40 d9 bd ea 67 47 be e4 8d da be
       -0.36756092 -0.10607995 -0.19473234 -0.4268638
000040 8c 4c e2 bc 80 e7 02 bf 8b cf 36 be 00 ab d9 be
       -0.027624391 -0.5113449 -0.17852609 -0.42513275
000050 f4 fa 15 be 40 5c 31 be 96 81 43 bc 00 36 88 3d
       -0.14646512 -0.17320347 -0.011932751 0.06650925
000060 2b 1b 00 bf ab e1 2d 3e 55 8f 34 bb 15 52 14 bf
       -0.50041455 0.16980617 -0.0027551253 -0.5793775
000070 16 41 1c 3e ba 3c 9e 3e c8 79 8d 3e 38 eb 73 3d
       0.15259203 0.30905706 0.27631974 0.059550494
000080 2b c4 a8 be 4f 89 32 3e cc 4d 28 bf 99 46 73 bc
       -0.32962164 0.17435192 -0.6574371 -0.014848375
000090 00 b1 82 bb ae 26 61 be 93 e5 5a be 8d 0f 23 be
       -0.003988385 -0.21987411 -0.21376638 -0.15923901
0000a0 ba fa d4 be 0d 74 37 3e f6 a8 03 be 9f aa 52 3f
       -0.4159754 0.17915364 -0.12857422 0.822916
0000b0 9a 2d 21 bf cc 71 a4 3e df 21 79 be 75 7e e7 bb
       -0.6296021 0.3211807 -0.24329327 -0.0070646354
0000c0 fe d8 73 bc 1e c3 9b be ff 08 5a bb 31 c3 12 3e
       -0.014883278 -0.304223 -0.0033269522 0.14332272
0000d0 60 87 9a be e0 d5 36 3d 04 a4 d4 be 5c f0 d8 3d
       -0.30181408 0.04463756 -0.41531384 0.1059272
0000e0 17 59 19 3f 43 be 59 be e1 00 20 bf 64 38 48 be
       0.59901565 -0.21263985 -0.6250134 -0.19552761
0000f0 fd 47 02 bf 0e 71 77 bf f7 af d2 3d 89 0f af 3d
       -0.50891095 -0.9665688 0.10287469 0.08547885

bn2.running_mean f4 [64]
000000 11 8f 9a bf a7 6f 40 3e 1a fe dd be fd 26 91 bf
       -1.207491 0.18792592 -0.43357927 -1.1340023
000010 51 13 8d bf 45 59 f9 bd a6 3b 01 40 41 9d be bf
       -1.102152 -0.1217523 2.0192657 -1.489174
000020 f3 08 2e bf e9 9d 10 3f 86 ba 62 bb 24 2f a9 3f
       -0.67982405 0.5649095 -0.003459604 1.3217511
000030 0d 58 99 bf 5f 78 17 be da d0 48 be 1c 42 bc bf
       -1.1979996 -0.14792012 -0.1961092 -1.4707675
000040 95 07 37 3e 1b 85 d2 bf 1e 75 29 bf e5 3a ee bf
       0.17873986 -1.644687 -0.6619433 -1.8611723
000050 e1 a3 06 bf f2 60 54 bf b2 d7 63 3f 17 ec 8f 3f
       -0.5259381 -0.82960427 0.89001 1.1243924
000060 cd e0 42 bf 63 37 12 3e 26 38 29 3d 92 a5 ca bf
       -0.7612427 0.14278941 0.041313313 -1.5831778
000070 07 32 b4 3e b3 80 f9 3e d6 c9 ef 3e 8f 2a 26 3e
       0.35194418 0.48731002 0.46833676 0.16227172
000080 63 78 6f bf f6 e9 e7 3d e4 ef ed bf a4 db 3c bf
       -0.9354307 0.113239214 -1.8588834 -0.73772645
000090 9c c2 04 3f bf 67 d1 be 33 30 f8 3e 8b 72 83 bf
       0.5185945 -0.40899464 0.48474273 -1.0269331
0000a0 78 db b5 bf 1c 52 ac 3f 86 8d c4 bd 97 fc 5f 40
       -1.4207602 1.3462558 -0.09597306 3.4997919
0000b0 d4 fe a7 bf b2 dd 49 3f 39 36 19 be 7c cd b6 3d
       -1.3124642 0.78853905 -0.1496209 0.08925912
0000c0 6f a2 0b 3f 0e c1 27 bf d8 70 46 3f 2c 3b 70 3f
       0.5454473 -0.65528953 0.77515936 0.9384029
0000d0 0c 76 22 3e f5 10 5a bf 6b e4 97 bf 26 35 16 40
       0.15865344 -0.85182124 -1.1866583 2.346994
0000e0 5b 06 ff 3f 9a 63 a3 bf e1 f1 02 c0 f9 23 71 3f
       1.9923815 -1.2764771 -2.046013 0.94195515
0000f0 e9 75 c5 bc fa 07 e3 bf 1f 7d a4 be 5e b8 3a 3f
       -0.024104076 -1.7736809 -0.3212671 0.7293757

bn2.running_var f4 [64]
000000 d6 2a 4f 41 ac 3e 57 41 9b 46 74 41 66 96 41 41
       12.947958 13.452801 15.267238 12.099218
000010 c0 b4 3d 41 60 77 97 41 88 e7 93 41 32 89 90 41
       11.856628 18.933289 18.488052 18.06699
000020 1a 5a 6a 41 a8 bf 5f 41 57 00 90 41 30 e6 62 41
       14.646997 13.984291 18.000166 14.181198
000030 9c 68 9f 41 1f 1e 76 41 f6 c7 3c 41 a7 3c 8d 41
       19.926079 15.382354 11.798819 17.654615
000040 8a 12 8f 41 8f a5 6e 41 6c b3 4e 41 b0 a0 5a 41
       17.884052 14.91542 12.918804 13.66423
000050 b9 01 96 41 2c 3f 70 41 24 7a 61 41 41 e9 50 41
       18.750841 15.015423 14.0923195 13.056947
000060 9c d6 5d 41 75 5a 59 41 50 7d 63 41 bd d3 a2 41
       13.864895 13.584584 14.218094 20.353388
000070 a9 ee 9d 41 c3 ca 76 41 a7 06 6a 41 70 4d 91 41
       19.741533 15.424502 14.626624 18.162811
000080 1c bc 77 41 2b b3 88 41 37 68 a1 41 1c 19 50 41
       15.483425 17.087484 20.175886 13.00613
000090 18 f0 79 41 2f 88 74 41 db fa 6f 41 ed cd 36 41
       15.621117 15.283248 14.998744 11.425275
0000a0 d7 9d 43 41 44 90 71 41 2d 00 7c 41 de 68 d3 41
       12.226035 15.097721 15.750043 26.426205
0000b0 c4 2d 6a 41 02 9b 54 41 a5 fd fc 40 02 6b 4e 41
       14.636173 13.287844 7.9059625 12.901125
0000c0 59 19 24 41 75 b8 88 41 73 d2 7a 41 5e b3 97 41
       10.256188 17.090067 15.676379 18.962582
0000d0 91 f1 25 41 fa 71 5e 41 2c af 7e 41 9c 08 70 41
       10.371476 13.902826 15.917767 15.002102
0000e0 95 29 93 41 41 c6 5c 41 57 a9 82 41 66 87 91 41
       18.395304 13.798402 16.332685 18.191113
0000f0 26 80 64 41 34 f1 5e 41 70 0d 55 41 4c 39 b9 41
       14.281286 13.9338875 13.315781 23.152977

fc3.weight f4 [13, 64]
000000 74 f2 53 c0 72 85 f6 bf 53 e6 1e 3d c9 fa 2a c0
       -3.3116732 -1.9259474 0.038793873 -2.6715567
000010 cb f8 c3 3e 65 a9 02 be 9e 8e 0c 3f 29 f1 97 3e
       0.3827575 -0.12759931 0.54905117 0.29676178
000020 de d9 a9 3d db c8 4a 3f 6f fc ff 3d b7 c9 05 3e
       0.08293508 0.7921273 0.1249932 0.1306523
000030 8c bb ce 3e 0d 6d 64 3e 8b ac 7b 3e 82 80 33 c0
       0.40377462 0.22307225 0.24577539 -2.8047185
000040 fd e0 99 bf cd 2a 6f 3e f9 34 9a 3e b6 68 06 c0
       -1.2021786 0.23356171 0.3011854 -2.100141
000050 c3 16 8d bf 7a d8 b3 bf e2 b9 ad 3e 38 65 9b be
       -1.1022571 -1.4050438 0.3393088 -0.3035066
000060 80 9a 5c bf a6 00 27 3e 64 21 47 3e 73 58 d8 3e
       -0.8617325 0.16308841 0.19446331 0.4225498
000070 97 a5 50 bf d1 28 2c bf 83 37 ab 3e fe ab 58 3e
       -0.8150267 -0.6724978 0.3344079 0.2115936
000080 20 e0 df bf 99 27 05 c0 16 a5 24 3f c5 15 b2 bf
       -1.7490273 -2.0805418 0.643144 -1.3912894
000090 92 01 19 c0 19 ad 67 3e 8b 8f 2c bf 4b 1e b1 3e
       -2.3907208 0.22624625 -0.6740653 0.34593424
0000a0 12 98 0c c0 24 f1 5f bf 03 3c 07 c0 ba 57 f1 be
       -2.1967816 -0.87477326 -2.1130378 -0.47137243
0000b0 c1 2b 52 c0 a3 dc bb 3e 84 b9 fa bf a2 e3 82 bf
       -3.2839205 0.3669177 -1.9587865 -1.0225718
0000c0 f3 f3 e8 3d b7 e5 a1 3e ea 5b 36 3e 31 e0 a8 3e
       0.113746546 0.3162057 0.178085 0.32983544
0000d0 f3 d1 24 3f 3b 84 00 3f 48 59 1c c0 88 8e 26 bf
       0.6438286 0.5020177 -2.4429493 -0.65061235
0000e0 4b 2b 9a bf 02 ad 16 c0 08 bc dd 3e 9a 43 fa 3e
       -1.2044462 -2.3543096 0.4330752 0.488797
0000f0 fd 0f 8a bf e0 34 cb 3e 2d eb 83 bf 37 79 bb 3e
       -1.0786129 0.39688778 -1.0306145 0.36615917
000100 7e 0b e6 bf 02 43 93 bf 3e f8 08 3f 8d 7f 8c c0
       -1.7972257 -1.1504824 0.5350379 -4.39057
000110 5b 48 2f 3f fe e0 bd bf 4c ac 57 bf 98 72 a9 3e
       0.6846978 -1.4834287 -0.8424728 0.3309524
000120 f2 bd 10 c0 4b b0 15 c0 47 9a 71 3e 1d e2 02 bf
       -2.2615933 -2.338885 0.23594008 -0.5112627
000130 20 c7 f7 bf d5 a6 a0 bf f7 d9 f2 bd 5b 03 29 c0
       -1.9357643 -1.2550913 -0.1185798 -2.6408298
000140 56 59 c3 bf 4d da 8f 3e fc 7f 33 3f 06 eb 21 c0
       -1.5261638 0.28096238 0.70117164 -2.5299697
000150 52 c0 cc bf 49 fc 9e 3e d2 31 d5 bf 43 ec b0 bf
       -1.5996192 0.31051853 -1.6655829 -1.3822101
000160 be 10 84 bf 48 b7 ea 3e 49 20 43 3e c1 eb 75 bc
       -1.0317609 0.45842957 0.19055285 -0.015009821
000170 98 81 8b 3e 1e 7d 27 3e b5 bf 22 c0 9f cf ae bf
       0.2724731 0.16356322 -2.5429509 -1.3657111
000180 b5 b1 9d 3e 79 5a 46 c0 51 f7 d1 bf c1 69 b8 3e
       0.30799642 -3.099272 -1.64036 0.36018184
000190 93 be 77 3e 0f fd 3d 3e 1d a2 fc bf 60 47 cd 3e
       0.24193792 0.18553565 -1.9736973 0.40093517
0001a0 b7 c8 4e c0 f2 20 9a 3e b3 69 e0 3d 80 cc db be
       -3.2310007 0.3010326 0.109576605 -0.4292946
0001b0 33 5c 1d c0 3b 84 ff bf a9 08 83 bf 21 2c a2 bf
       -2.4587524 -1.9962229 -1.0237018 -1.2669717
0001c0 f3 23 26 bf dd 85 d3 3e 56 02 81 bf c8 9b d4 bf
       -0.64898604 0.41313067 -1.0078838 -1.6610041
0001d0 73 88 40 3e 55 81 19 3f 71 37 77 3e 3e e5 47 bf
       0.18802051 0.5996297 0.24142243 -0.7808417
0001e0 74 d6 c8 3e f5 0e c9 3e da d7 8f 3e 83 85 2a c0
       0.39226115 0.39269224 0.2809437 -2.664399
0001f0 53 5c 28 bf de 5c a7 3e 6e c7 71 3e f6 77 df bf
       -0.65765876 0.3268804 0.23611233 -1.7458484
000200 63 2c 88 3e 45 c2 50 3f 7c 06 03 3f ff dd 11 c0
       0.26596364 0.8154643 0.5118177 -2.2791746
000210 08 e6 1e c0 fe 70 20 c0 03 20 1e c0 fd d1 66 bf
       -2.48279 -2.5068965 -2.4707038 -0.90164167
000220 80 d2 2c bf 0a 39 25 3f ff c1 94 bf b9 d7 3b 3f
       -0.675087 0.6454016 -1.1621703 0.7337604
000230 62 cd 0c 3f 11 86 0d c0 3c 0b df 3e 7d 44 2e 3e
       0.5500089 -2.2113078 0.4356326 0.17018314
000240 c0 2b be 3e 79 57 0e c0 61 a1 f0 bf fb e0 b2 bf
       0.37142754 -2.224089 -1.8799249 -1.3974909
000250 7b af e4 3e 47 7c 0b c0 0e 3b 20 c0 35 f6 06 bf
       0.4466513 -2.1794603 -2.5036044 -0.5271943
000260 df f5 c2 3e 69 86 05 c0 bc 0e 04 c0 e8 04 a7 bf
       0.3807821 -2.0863287 -2.0633993 -1.3048372
000270 5a e2 82 3e e6 98 bd 3e 81 c2 fb bf 5a 9f 14 c0
       0.25563318 0.37030715 -1.9668733 -2.322226
000280 3d 82 21 bf a6 a7 10 c0 7c ef 05 3f 08 a8 0c 3f
       -0.6308935 -2.2602324 0.5231855 0.54943895
000290 11 22 a5 3e f6 55 34 c0 a5 b8 ba be fa d1 86 3e
       0.32252553 -2.8177466 -0.36468998 0.26332074
0002a0 51 08 3a c0 f8 97 5d 3e b3 a7 c6 bf 57 1b 72 3e
       -2.9067576 0.21640003 -1.5519928 0.23643242
0002b0 39 64 92 3e 47 83 1f c0 07 0f 03 bf fc d5 b3 bf
       0.2859209 -2.4923875 -0.51194805 -1.4049678
0002c0 66 0a c8 3e cc 09 e8 3e 6b 91 15 c0 59 54 06 c0
       0.39070433 0.45319974 -2.3370006 -2.0988982
0002d0 79 1a e0 bf a3 a4 0e c0 3f d1 96 3d 55 f9 0e 3f
       -1.7508079 -2.2287986 0.07364129 0.558492
0002e0 16 a3 2e 3f 7d 9e 7a 3e 98 77 09 c0 2f 94 0f c0
       0.682176 0.24474521 -2.1479244 -2.2434194
0002f0 9a d7 d6 3e 0e ee bf 3d c9 c5 42 be d6 74 2d c0
       0.41961366 0.09371577 -0.19020762 -2.710256
000300 81 c5 13 c0 e0 5f 03 3f 63 d2 ec bf 06 f1 d9 bf
       -2.3089297 0.5131817 -1.8501705 -1.702668
000310 3f 41 e5 be 7b eb f7 3e 3b 94 fa 3e c0 69 bc bf
       -0.4477634 0.48421845 0.48941216 -1.4719772
000320 d3 b0 95 be b2 ea 07 3f de 58 16 c0 b7 7b 21 c0
       -0.2923647 0.5309249 -2.349174 -2.523176
000330 3d a2 9b bf 1b 1f 27 c0 7e ac bb bf 9e e8 85 39
       -1.2158886 -2.6112735 -1.4662015 0.0002554105
000340 a5 24 a6 3e d8 1a ee 3d a5 19 37 3d 57 50 cf bf
       0.32449833 0.11626214 0.04470219 -1.6196393
000350 e3 a0 ad bf 48 6b dd 3e 98 65 13 bf 64 c7 a8 3e
       -1.3564724 0.43245912 -0.57576895 0.32964623
000360 3e 45 73 3e f8 df 06 3f 67 49 5f 3e f6 9a 91 bf
       0.23756883 0.526855 0.21805345 -1.1375415
000370 bd 85 b7 3e 05 82 98 3e 34 c9 ab 3e 85 53 1f c0
       0.35844222 0.29786697 0.33551943 -2.4894726
000380 e9 20 1c bf 56 ee b6 bf 91 08 b5 bf f4 ae a8 3e
       -0.60987717 -1.4291484 -1.4143239 0.3294598
000390 6b 16 1c bf b5 ff a8 3e 22 52 b3 3e 2c 88 af bf
       -0.6097171 0.3300759 0.350236 -1.3713431
0003a0 65 e9 c7 3e 58 05 a1 3e a3 6e ba 3e b1 72 f0 3e
       0.39045253 0.3144939 0.36412534 0.46962503
0003b0 a5 13 97 be 1d 7d b1 3e cb 59 1c 3f 94 e0 66 3e
       -0.29507175 0.34665766 0.61074513 0.22546607
0003c0 17 e0 7e bf 44 a2 de bf d2 8c 8b bf fe ca a3 bf
       -0.99560684 -1.739327 -1.090235 -1.2796323
0003d0 4a 67 bf be 6c 92 53 c0 74 d3 e8 3e 9b 50 e7 be
       -0.3738349 -3.305812 0.45473826 -0.45178685
0003e0 09 8f af 3e 57 4a 0f c0 4a ee de bf 0a 31 78 bf
       0.34288815 -2.2389123 -1.741647 -0.9694983
0003f0 93 68 b7 bf a6 4c 1f be 99 54 b2 bf 87 29 21 c0
       -1.4328789 -0.15556583 -1.3932067 -2.5181596

fc3.bias f4 [13]
000000 bb 18 06 bf 78 94 ad 3f 9a 3d 32 3f be a9 25 3e
       -0.52381486 1.3560934 0.69625247 0.16178033
000010 1c f5 53 3f 29 59 0b 3f cd 84 16 bf 1c 50 87 bf
       0.8279588 0.5443292 -0.5879639 -1.0571322
000020 eb cc 74 3d 45 2f db 3e 85 11 a1 3f ac 68 a3 bf
       0.059765738 0.428095 1.2583472 -1.2766318
000030 ca 72 8d bf
       -1.1050656
